…
['/home/kli16/ISM_custom/esm_NSUBS/esm/uclasm/matching', '/home/kli16/miniconda3/envs/esm_NSUBS_env/lib/python37.zip', '/home/kli16/miniconda3/envs/esm_NSUBS_env/lib/python3.7', '/home/kli16/miniconda3/envs/esm_NSUBS_env/lib/python3.7/lib-dynload', '/home/kli16/miniconda3/envs/esm_NSUBS_env/lib/python3.7/site-packages', '/home/kli16/ISM_custom/esm_NSUBS/esm/', '/home/kli16/ISM_custom/esm_NSUBS/esm/uclasm/', '/home/kli16/miniconda3/envs/esm_NSUBS_env/lib/python3.7/site-packages/IPython/extensions', '/home/kli16/uclasm/']
model
DVN_wrapper(
  (dvn): DVN(
    (pre_encoder): PreEncoderConcatSelectedOneHotAndMLP(
      (mlp_q): Linear(in_features=49, out_features=16, bias=True)
      (mlp_t): Linear(in_features=49, out_features=16, bias=True)
    )
    (encoder): GNNConsensusEncoder(
      (gnn_wrapper_li): ModuleList(
        (0): GNNWrapper(
          (gnnm): OurGMNCustomWrapper(
            (gmn_inter): OurGMNCustomInter(
              (mlp_att_cross_q): MLP(
                (activation): ELU(alpha=1.0)
                (layers): ModuleList(
                  (0): Linear(in_features=16, out_features=16, bias=True)
                )
              )
              (mlp_att_cross_t): MLP(
                (activation): ELU(alpha=1.0)
                (layers): ModuleList(
                  (0): Linear(in_features=16, out_features=16, bias=True)
                )
              )
              (mlp_val_cross_q): MLP(
                (activation): ELU(alpha=1.0)
                (layers): ModuleList(
                  (0): Linear(in_features=16, out_features=16, bias=True)
                )
              )
              (mlp_val_cross_t): MLP(
                (activation): ELU(alpha=1.0)
                (layers): ModuleList(
                  (0): Linear(in_features=16, out_features=16, bias=True)
                )
              )
              (mlp_merge_q): MLP(
                (activation): ELU(alpha=1.0)
                (layers): ModuleList(
                  (0): Linear(in_features=32, out_features=16, bias=True)
                )
              )
              (mlp_merge_t): MLP(
                (activation): ELU(alpha=1.0)
                (layers): ModuleList(
                  (0): Linear(in_features=48, out_features=16, bias=True)
                )
              )
            )
            (gmn_intra): OurGMNCustomIntra(
              (gnn_t): GATv2Conv(16, 16, heads=1)
              (gnn_q): GATv2Conv(16, 16, heads=1)
            )
          )
        )
        (1): GNNWrapper(
          (gnnm): OurGMNCustomWrapper(
            (gmn_inter): OurGMNCustomInter(
              (mlp_att_cross_q): MLP(
                (activation): ELU(alpha=1.0)
                (layers): ModuleList(
                  (0): Linear(in_features=16, out_features=16, bias=True)
                )
              )
              (mlp_att_cross_t): MLP(
                (activation): ELU(alpha=1.0)
                (layers): ModuleList(
                  (0): Linear(in_features=16, out_features=16, bias=True)
                )
              )
              (mlp_val_cross_q): MLP(
                (activation): ELU(alpha=1.0)
                (layers): ModuleList(
                  (0): Linear(in_features=16, out_features=16, bias=True)
                )
              )
              (mlp_val_cross_t): MLP(
                (activation): ELU(alpha=1.0)
                (layers): ModuleList(
                  (0): Linear(in_features=16, out_features=16, bias=True)
                )
              )
              (mlp_merge_q): MLP(
                (activation): ELU(alpha=1.0)
                (layers): ModuleList(
                  (0): Linear(in_features=32, out_features=16, bias=True)
                )
              )
              (mlp_merge_t): MLP(
                (activation): ELU(alpha=1.0)
                (layers): ModuleList(
                  (0): Linear(in_features=48, out_features=16, bias=True)
                )
              )
            )
            (gmn_intra): OurGMNCustomIntra(
              (gnn_t): GATv2Conv(16, 16, heads=1)
              (gnn_q): GATv2Conv(16, 16, heads=1)
            )
          )
        )
        (2): GNNWrapper(
          (gnnm): OurGMNCustomWrapper(
            (gmn_inter): OurGMNCustomInter(
              (mlp_att_cross_q): MLP(
                (activation): ELU(alpha=1.0)
                (layers): ModuleList(
                  (0): Linear(in_features=16, out_features=16, bias=True)
                )
              )
              (mlp_att_cross_t): MLP(
                (activation): ELU(alpha=1.0)
                (layers): ModuleList(
                  (0): Linear(in_features=16, out_features=16, bias=True)
                )
              )
              (mlp_val_cross_q): MLP(
                (activation): ELU(alpha=1.0)
                (layers): ModuleList(
                  (0): Linear(in_features=16, out_features=16, bias=True)
                )
              )
              (mlp_val_cross_t): MLP(
                (activation): ELU(alpha=1.0)
                (layers): ModuleList(
                  (0): Linear(in_features=16, out_features=16, bias=True)
                )
              )
              (mlp_merge_q): MLP(
                (activation): ELU(alpha=1.0)
                (layers): ModuleList(
                  (0): Linear(in_features=32, out_features=16, bias=True)
                )
              )
              (mlp_merge_t): MLP(
                (activation): ELU(alpha=1.0)
                (layers): ModuleList(
                  (0): Linear(in_features=48, out_features=16, bias=True)
                )
              )
            )
            (gmn_intra): OurGMNCustomIntra(
              (gnn_t): GATv2Conv(16, 16, heads=1)
              (gnn_q): GATv2Conv(16, 16, heads=1)
            )
          )
        )
        (3): GNNWrapper(
          (gnnm): OurGMNCustomWrapper(
            (gmn_inter): OurGMNCustomInter(
              (mlp_att_cross_q): MLP(
                (activation): ELU(alpha=1.0)
                (layers): ModuleList(
                  (0): Linear(in_features=16, out_features=16, bias=True)
                )
              )
              (mlp_att_cross_t): MLP(
                (activation): ELU(alpha=1.0)
                (layers): ModuleList(
                  (0): Linear(in_features=16, out_features=16, bias=True)
                )
              )
              (mlp_val_cross_q): MLP(
                (activation): ELU(alpha=1.0)
                (layers): ModuleList(
                  (0): Linear(in_features=16, out_features=16, bias=True)
                )
              )
              (mlp_val_cross_t): MLP(
                (activation): ELU(alpha=1.0)
                (layers): ModuleList(
                  (0): Linear(in_features=16, out_features=16, bias=True)
                )
              )
              (mlp_merge_q): MLP(
                (activation): ELU(alpha=1.0)
                (layers): ModuleList(
                  (0): Linear(in_features=32, out_features=16, bias=True)
                )
              )
              (mlp_merge_t): MLP(
                (activation): ELU(alpha=1.0)
                (layers): ModuleList(
                  (0): Linear(in_features=48, out_features=16, bias=True)
                )
              )
            )
            (gmn_intra): OurGMNCustomIntra(
              (gnn_t): GATv2Conv(16, 16, heads=1)
              (gnn_q): GATv2Conv(16, 16, heads=1)
            )
          )
        )
      )
      (jk): JumpingKnowledge(max)
    )
    (decoder_policy): BilinearDecoder(
      (encoder): MLP(
        (activation): ELU(alpha=1.0)
        (layers): ModuleList(
          (0): Linear(in_features=16, out_features=16, bias=True)
        )
      )
      (decoder): MLP(
        (activation): ELU(alpha=1.0)
        (layers): ModuleList(
          (0): Linear(in_features=48, out_features=32, bias=True)
          (1): Linear(in_features=32, out_features=16, bias=True)
          (2): Linear(in_features=16, out_features=8, bias=True)
          (3): Linear(in_features=8, out_features=1, bias=True)
        )
      )
    )
    (decoder_value): QueryDecoder(
      (mlp_att): MLP(
        (activation): ELU(alpha=1.0)
        (layers): ModuleList(
          (0): Linear(in_features=16, out_features=8, bias=True)
          (1): Linear(in_features=8, out_features=1, bias=True)
        )
      )
      (mlp_val): MLP(
        (activation): ELU(alpha=1.0)
        (layers): ModuleList(
          (0): Linear(in_features=16, out_features=16, bias=True)
        )
      )
      (mlp_final): MLP(
        (activation): ELU(alpha=1.0)
        (layers): ModuleList(
          (0): Linear(in_features=16, out_features=32, bias=True)
          (1): Linear(in_features=32, out_features=16, bias=True)
          (2): Linear(in_features=16, out_features=8, bias=True)
          (3): Linear(in_features=8, out_features=4, bias=True)
          (4): Linear(in_features=4, out_features=1, bias=True)
        )
      )
      (norm): NormalizeAttention()
    )
    (norm_li): ModuleList(
      (0): LayerNorm((16,), eps=1e-05, elementwise_affine=True)
      (1): LayerNorm((16,), eps=1e-05, elementwise_affine=True)
      (2): LayerNorm((16,), eps=1e-05, elementwise_affine=True)
      (3): LayerNorm((16,), eps=1e-05, elementwise_affine=True)
    )
  )
  (mlp_final): MLP(
    (activation): ELU(alpha=1.0)
    (layers): ModuleList(
      (0): Linear(in_features=64, out_features=32, bias=True)
      (1): Linear(in_features=32, out_features=16, bias=True)
      (2): Linear(in_features=16, out_features=8, bias=True)
      (3): Linear(in_features=8, out_features=4, bias=True)
      (4): Linear(in_features=4, out_features=1, bias=True)
    )
  )
)
episode: 0 loss: -3.372793674468994
episode: 10 loss: -7.047524452209473
episode: 20 loss: -0.04032325744628906
episode: 30 loss: -1.1158115863800049
episode: 40 loss: -2.1257944107055664
episode: 50 loss: -5.079685211181641
episode: 60 loss: -1.906455159187317
episode: 70 loss: -0.21531224250793457
episode: 80 loss: 1.1200863122940063
episode: 90 loss: -3.3380322456359863
…
