…
-timeout_val=120  --train_dataset=imsm-dblp_unlabeled  --train_path_indices=[[0, 5], [0, 5], [0, 5], [0, 5], [0, 50], [0, 50], [0, 50]]  --train_sample_size_li=[None]  --train_subgroup=list  --train_subgroup_list=['dense_64']  --use_NN_for_u_score=False  --use_is_early_pruning=False  --use_node_mask_diameter=False  --user=kli16  --val_dataset=imsm-dblp_unlabeled  --val_every_games=1  --val_path_indices=[95, 100]  --val_sample_size_li=[None]  --val_subgroup=dense_64  --val_subgroup_list=None

model:
DVN_wrapper(
  (dvn): DVN(
    (pre_encoder): PreEncoderConcatSelectedOneHotAndMLP(
      (mlp_q): Linear(in_features=49, out_features=64, bias=True)
      (mlp_t): Linear(in_features=49, out_features=64, bias=True)
      (mlp_RWSEq): Linear(in_features=20, out_features=64, bias=True)
      (mlp_RWSEt): Linear(in_features=20, out_features=64, bias=True)
    )
    (encoder): GNNConsensusEncoder(
      (gnn_wrapper_li): ModuleList(
        (0-3): 4 x GNNWrapper(
          (gnnm): OurGMNCustomWrapper(
            (gmn_inter): OurGMNCustomInter(
              (mlp_att_cross_q): MLP(
                (activation): ELU(alpha=1.0)
                (layers): ModuleList(
                  (0): Linear(in_features=128, out_features=128, bias=True)
                )
              )
              (mlp_att_cross_t): MLP(
                (activation): ELU(alpha=1.0)
                (layers): ModuleList(
                  (0): Linear(in_features=128, out_features=128, bias=True)
                )
              )
              (mlp_val_cross_q): MLP(
                (activation): ELU(alpha=1.0)
                (layers): ModuleList(
                  (0): Linear(in_features=128, out_features=128, bias=True)
                )
              )
              (mlp_val_cross_t): MLP(
                (activation): ELU(alpha=1.0)
                (layers): ModuleList(
                  (0): Linear(in_features=128, out_features=128, bias=True)
                )
              )
              (mlp_merge_q): MLP(
                (activation): ELU(alpha=1.0)
                (layers): ModuleList(
                  (0): Linear(in_features=256, out_features=128, bias=True)
                )
              )
              (mlp_merge_t): MLP(
                (activation): ELU(alpha=1.0)
                (layers): ModuleList(
                  (0): Linear(in_features=384, out_features=128, bias=True)
                )
              )
            )
            (gmn_intra): OurGMNCustomIntra(
              (gnn_t): GATv2Conv(128, 128, heads=1)
              (gnn_q): GATv2Conv(128, 128, heads=1)
            )
          )
        )
      )
      (jk): JumpingKnowledge(max)
    )
    (decoder_policy): BilinearDecoder(
      (encoder): MLP(
        (activation): ELU(alpha=1.0)
        (layers): ModuleList(
          (0): Linear(in_features=128, out_features=128, bias=True)
        )
      )
      (decoder): MLP(
        (activation): ELU(alpha=1.0)
        (layers): ModuleList(
          (0): Linear(in_features=384, out_features=32, bias=True)
          (1): Linear(in_features=32, out_features=16, bias=True)
          (2): Linear(in_features=16, out_features=8, bias=True)
          (3): Linear(in_features=8, out_features=1, bias=True)
        )
      )
    )
    (decoder_value): QueryDecoder(
      (mlp_att): MLP(
        (activation): ELU(alpha=1.0)
        (layers): ModuleList(
          (0): Linear(in_features=128, out_features=8, bias=True)
          (1): Linear(in_features=8, out_features=1, bias=True)
        )
      )
      (mlp_val): MLP(
        (activation): ELU(alpha=1.0)
        (layers): ModuleList(
          (0): Linear(in_features=128, out_features=128, bias=True)
        )
      )
      (mlp_final): MLP(
        (activation): ELU(alpha=1.0)
        (layers): ModuleList(
          (0): Linear(in_features=128, out_features=32, bias=True)
          (1): Linear(in_features=32, out_features=16, bias=True)
          (2): Linear(in_features=16, out_features=8, bias=True)
          (3): Linear(in_features=8, out_features=4, bias=True)
          (4): Linear(in_features=4, out_features=1, bias=True)
        )
      )
      (norm): NormalizeAttention()
    )
    (norm_li): ModuleList(
      (0-3): 4 x LayerNorm((128,), eps=1e-05, elementwise_affine=True)
    )
  )
  (mlp_final): MLP(
    (activation): ELU(alpha=1.0)
    (layers): ModuleList(
      (0): Linear(in_features=64, out_features=32, bias=True)
      (1): Linear(in_features=32, out_features=16, bias=True)
      (2): Linear(in_features=16, out_features=8, bias=True)
      (3): Linear(in_features=8, out_features=4, bias=True)
      (4): Linear(in_features=4, out_features=1, bias=True)
    )
  )
)


Details:
DVN_wrapper(
  (dvn): DVN(
    (pre_encoder): PreEncoderConcatSelectedOneHotAndMLP(
      (mlp_q): Linear(in_features=49, out_features=64, bias=True)
      (mlp_t): Linear(in_features=49, out_features=64, bias=True)
      (mlp_RWSEq): Linear(in_features=20, out_features=64, bias=True)
      (mlp_RWSEt): Linear(in_features=20, out_features=64, bias=True)
    )
    (encoder): GNNConsensusEncoder(
      (gnn_wrapper_li): ModuleList(
        (0-3): 4 x GNNWrapper(
          (gnnm): OurGMNCustomWrapper(
            (gmn_inter): OurGMNCustomInter(
              (mlp_att_cross_q): MLP(
                (activation): ELU(alpha=1.0)
                (layers): ModuleList(
                  (0): Linear(in_features=128, out_features=128, bias=True)
                )
              )
              (mlp_att_cross_t): MLP(
                (activation): ELU(alpha=1.0)
                (layers): ModuleList(
                  (0): Linear(in_features=128, out_features=128, bias=True)
                )
              )
              (mlp_val_cross_q): MLP(
                (activation): ELU(alpha=1.0)
                (layers): ModuleList(
                  (0): Linear(in_features=128, out_features=128, bias=True)
                )
              )
              (mlp_val_cross_t): MLP(
                (activation): ELU(alpha=1.0)
                (layers): ModuleList(
                  (0): Linear(in_features=128, out_features=128, bias=True)
                )
              )
              (mlp_merge_q): MLP(
                (activation): ELU(alpha=1.0)
                (layers): ModuleList(
                  (0): Linear(in_features=256, out_features=128, bias=True)
                )
              )
              (mlp_merge_t): MLP(
                (activation): ELU(alpha=1.0)
                (layers): ModuleList(
                  (0): Linear(in_features=384, out_features=128, bias=True)
                )
              )
            )
            (gmn_intra): OurGMNCustomIntra(
              (gnn_t): GATv2Conv(128, 128, heads=1)
              (gnn_q): GATv2Conv(128, 128, heads=1)
            )
          )
        )
      )
      (jk): JumpingKnowledge(max)
    )
    (decoder_policy): BilinearDecoder(
      (encoder): MLP(
        (activation): ELU(alpha=1.0)
        (layers): ModuleList(
          (0): Linear(in_features=128, out_features=128, bias=True)
        )
      )
      (decoder): MLP(
        (activation): ELU(alpha=1.0)
        (layers): ModuleList(
          (0): Linear(in_features=384, out_features=32, bias=True)
          (1): Linear(in_features=32, out_features=16, bias=True)
          (2): Linear(in_features=16, out_features=8, bias=True)
          (3): Linear(in_features=8, out_features=1, bias=True)
        )
      )
    )
    (decoder_value): QueryDecoder(
      (mlp_att): MLP(
        (activation): ELU(alpha=1.0)
        (layers): ModuleList(
          (0): Linear(in_features=128, out_features=8, bias=True)
          (1): Linear(in_features=8, out_features=1, bias=True)
        )
      )
      (mlp_val): MLP(
        (activation): ELU(alpha=1.0)
        (layers): ModuleList(
          (0): Linear(in_features=128, out_features=128, bias=True)
        )
      )
      (mlp_final): MLP(
        (activation): ELU(alpha=1.0)
        (layers): ModuleList(
          (0): Linear(in_features=128, out_features=32, bias=True)
          (1): Linear(in_features=32, out_features=16, bias=True)
          (2): Linear(in_features=16, out_features=8, bias=True)
          (3): Linear(in_features=8, out_features=4, bias=True)
          (4): Linear(in_features=4, out_features=1, bias=True)
        )
      )
      (norm): NormalizeAttention()
    )
    (norm_li): ModuleList(
      (0-3): 4 x LayerNorm((128,), eps=1e-05, elementwise_affine=True)
    )
  )
  (mlp_final): MLP(
    (activation): ELU(alpha=1.0)
    (layers): ModuleList(
      (0): Linear(in_features=64, out_features=32, bias=True)
      (1): Linear(in_features=32, out_features=16, bias=True)
      (2): Linear(in_features=16, out_features=8, bias=True)
      (3): Linear(in_features=8, out_features=4, bias=True)
      (4): Linear(in_features=4, out_features=1, bias=True)
    )
  )
)

dvn
DVN(
  (pre_encoder): PreEncoderConcatSelectedOneHotAndMLP(
    (mlp_q): Linear(in_features=49, out_features=64, bias=True)
    (mlp_t): Linear(in_features=49, out_features=64, bias=True)
    (mlp_RWSEq): Linear(in_features=20, out_features=64, bias=True)
    (mlp_RWSEt): Linear(in_features=20, out_features=64, bias=True)
  )
  (encoder): GNNConsensusEncoder(
    (gnn_wrapper_li): ModuleList(
      (0-3): 4 x GNNWrapper(
        (gnnm): OurGMNCustomWrapper(
          (gmn_inter): OurGMNCustomInter(
            (mlp_att_cross_q): MLP(
              (activation): ELU(alpha=1.0)
              (layers): ModuleList(
                (0): Linear(in_features=128, out_features=128, bias=True)
              )
            )
            (mlp_att_cross_t): MLP(
              (activation): ELU(alpha=1.0)
              (layers): ModuleList(
                (0): Linear(in_features=128, out_features=128, bias=True)
              )
            )
            (mlp_val_cross_q): MLP(
              (activation): ELU(alpha=1.0)
              (layers): ModuleList(
                (0): Linear(in_features=128, out_features=128, bias=True)
              )
            )
            (mlp_val_cross_t): MLP(
              (activation): ELU(alpha=1.0)
              (layers): ModuleList(
                (0): Linear(in_features=128, out_features=128, bias=True)
              )
            )
            (mlp_merge_q): MLP(
              (activation): ELU(alpha=1.0)
              (layers): ModuleList(
                (0): Linear(in_features=256, out_features=128, bias=True)
              )
            )
            (mlp_merge_t): MLP(
              (activation): ELU(alpha=1.0)
              (layers): ModuleList(
                (0): Linear(in_features=384, out_features=128, bias=True)
              )
            )
          )
          (gmn_intra): OurGMNCustomIntra(
            (gnn_t): GATv2Conv(128, 128, heads=1)
            (gnn_q): GATv2Conv(128, 128, heads=1)
          )
        )
      )
    )
    (jk): JumpingKnowledge(max)
  )
  (decoder_policy): BilinearDecoder(
    (encoder): MLP(
      (activation): ELU(alpha=1.0)
      (layers): ModuleList(
        (0): Linear(in_features=128, out_features=128, bias=True)
      )
    )
    (decoder): MLP(
      (activation): ELU(alpha=1.0)
      (layers): ModuleList(
        (0): Linear(in_features=384, out_features=32, bias=True)
        (1): Linear(in_features=32, out_features=16, bias=True)
        (2): Linear(in_features=16, out_features=8, bias=True)
        (3): Linear(in_features=8, out_features=1, bias=True)
      )
    )
  )
  (decoder_value): QueryDecoder(
    (mlp_att): MLP(
      (activation): ELU(alpha=1.0)
      (layers): ModuleList(
        (0): Linear(in_features=128, out_features=8, bias=True)
        (1): Linear(in_features=8, out_features=1, bias=True)
      )
    )
    (mlp_val): MLP(
      (activation): ELU(alpha=1.0)
      (layers): ModuleList(
        (0): Linear(in_features=128, out_features=128, bias=True)
      )
    )
    (mlp_final): MLP(
      (activation): ELU(alpha=1.0)
      (layers): ModuleList(
        (0): Linear(in_features=128, out_features=32, bias=True)
        (1): Linear(in_features=32, out_features=16, bias=True)
        (2): Linear(in_features=16, out_features=8, bias=True)
        (3): Linear(in_features=8, out_features=4, bias=True)
        (4): Linear(in_features=4, out_features=1, bias=True)
      )
    )
    (norm): NormalizeAttention()
  )
  (norm_li): ModuleList(
    (0-3): 4 x LayerNorm((128,), eps=1e-05, elementwise_affine=True)
  )
)

dvn.pre_encoder
PreEncoderConcatSelectedOneHotAndMLP(
  (mlp_q): Linear(in_features=49, out_features=64, bias=True)
  (mlp_t): Linear(in_features=49, out_features=64, bias=True)
  (mlp_RWSEq): Linear(in_features=20, out_features=64, bias=True)
  (mlp_RWSEt): Linear(in_features=20, out_features=64, bias=True)
)

dvn.pre_encoder.mlp_q
Linear(in_features=49, out_features=64, bias=True)

dvn.pre_encoder.mlp_t
Linear(in_features=49, out_features=64, bias=True)

dvn.pre_encoder.mlp_RWSEq
Linear(in_features=20, out_features=64, bias=True)

dvn.pre_encoder.mlp_RWSEt
Linear(in_features=20, out_features=64, bias=True)

dvn.encoder
GNNConsensusEncoder(
  (gnn_wrapper_li): ModuleList(
    (0-3): 4 x GNNWrapper(
      (gnnm): OurGMNCustomWrapper(
        (gmn_inter): OurGMNCustomInter(
          (mlp_att_cross_q): MLP(
            (activation): ELU(alpha=1.0)
            (layers): ModuleList(
              (0): Linear(in_features=128, out_features=128, bias=True)
            )
          )
          (mlp_att_cross_t): MLP(
            (activation): ELU(alpha=1.0)
            (layers): ModuleList(
              (0): Linear(in_features=128, out_features=128, bias=True)
            )
          )
          (mlp_val_cross_q): MLP(
            (activation): ELU(alpha=1.0)
            (layers): ModuleList(
              (0): Linear(in_features=128, out_features=128, bias=True)
            )
          )
          (mlp_val_cross_t): MLP(
            (activation): ELU(alpha=1.0)
            (layers): ModuleList(
              (0): Linear(in_features=128, out_features=128, bias=True)
            )
          )
          (mlp_merge_q): MLP(
            (activation): ELU(alpha=1.0)
            (layers): ModuleList(
              (0): Linear(in_features=256, out_features=128, bias=True)
            )
          )
          (mlp_merge_t): MLP(
            (activation): ELU(alpha=1.0)
            (layers): ModuleList(
              (0): Linear(in_features=384, out_features=128, bias=True)
            )
          )
        )
        (gmn_intra): OurGMNCustomIntra(
          (gnn_t): GATv2Conv(128, 128, heads=1)
          (gnn_q): GATv2Conv(128, 128, heads=1)
        )
      )
    )
  )
  (jk): JumpingKnowledge(max)
)

dvn.encoder.gnn_wrapper_li
ModuleList(
  (0-3): 4 x GNNWrapper(
    (gnnm): OurGMNCustomWrapper(
      (gmn_inter): OurGMNCustomInter(
        (mlp_att_cross_q): MLP(
          (activation): ELU(alpha=1.0)
          (layers): ModuleList(
            (0): Linear(in_features=128, out_features=128, bias=True)
          )
        )
        (mlp_att_cross_t): MLP(
          (activation): ELU(alpha=1.0)
          (layers): ModuleList(
            (0): Linear(in_features=128, out_features=128, bias=True)
          )
        )
        (mlp_val_cross_q): MLP(
          (activation): ELU(alpha=1.0)
          (layers): ModuleList(
            (0): Linear(in_features=128, out_features=128, bias=True)
          )
        )
        (mlp_val_cross_t): MLP(
          (activation): ELU(alpha=1.0)
          (layers): ModuleList(
            (0): Linear(in_features=128, out_features=128, bias=True)
          )
        )
        (mlp_merge_q): MLP(
          (activation): ELU(alpha=1.0)
          (layers): ModuleList(
            (0): Linear(in_features=256, out_features=128, bias=True)
          )
        )
        (mlp_merge_t): MLP(
          (activation): ELU(alpha=1.0)
          (layers): ModuleList(
            (0): Linear(in_features=384, out_features=128, bias=True)
          )
        )
      )
      (gmn_intra): OurGMNCustomIntra(
        (gnn_t): GATv2Conv(128, 128, heads=1)
        (gnn_q): GATv2Conv(128, 128, heads=1)
      )
    )
  )
)

dvn.encoder.gnn_wrapper_li.0
GNNWrapper(
  (gnnm): OurGMNCustomWrapper(
    (gmn_inter): OurGMNCustomInter(
      (mlp_att_cross_q): MLP(
        (activation): ELU(alpha=1.0)
        (layers): ModuleList(
          (0): Linear(in_features=128, out_features=128, bias=True)
        )
      )
      (mlp_att_cross_t): MLP(
        (activation): ELU(alpha=1.0)
        (layers): ModuleList(
          (0): Linear(in_features=128, out_features=128, bias=True)
        )
      )
      (mlp_val_cross_q): MLP(
        (activation): ELU(alpha=1.0)
        (layers): ModuleList(
          (0): Linear(in_features=128, out_features=128, bias=True)
        )
      )
      (mlp_val_cross_t): MLP(
        (activation): ELU(alpha=1.0)
        (layers): ModuleList(
          (0): Linear(in_features=128, out_features=128, bias=True)
        )
      )
      (mlp_merge_q): MLP(
        (activation): ELU(alpha=1.0)
        (layers): ModuleList(
          (0): Linear(in_features=256, out_features=128, bias=True)
        )
      )
      (mlp_merge_t): MLP(
        (activation): ELU(alpha=1.0)
        (layers): ModuleList(
          (0): Linear(in_features=384, out_features=128, bias=True)
        )
      )
    )
    (gmn_intra): OurGMNCustomIntra(
      (gnn_t): GATv2Conv(128, 128, heads=1)
      (gnn_q): GATv2Conv(128, 128, heads=1)
    )
  )
)

dvn.encoder.gnn_wrapper_li.0.gnnm
OurGMNCustomWrapper(
  (gmn_inter): OurGMNCustomInter(
    (mlp_att_cross_q): MLP(
      (activation): ELU(alpha=1.0)
      (layers): ModuleList(
        (0): Linear(in_features=128, out_features=128, bias=True)
      )
    )
    (mlp_att_cross_t): MLP(
      (activation): ELU(alpha=1.0)
      (layers): ModuleList(
        (0): Linear(in_features=128, out_features=128, bias=True)
      )
    )
    (mlp_val_cross_q): MLP(
      (activation): ELU(alpha=1.0)
      (layers): ModuleList(
        (0): Linear(in_features=128, out_features=128, bias=True)
      )
    )
    (mlp_val_cross_t): MLP(
      (activation): ELU(alpha=1.0)
      (layers): ModuleList(
        (0): Linear(in_features=128, out_features=128, bias=True)
      )
    )
    (mlp_merge_q): MLP(
      (activation): ELU(alpha=1.0)
      (layers): ModuleList(
        (0): Linear(in_features=256, out_features=128, bias=True)
      )
    )
    (mlp_merge_t): MLP(
      (activation): ELU(alpha=1.0)
      (layers): ModuleList(
        (0): Linear(in_features=384, out_features=128, bias=True)
      )
    )
  )
  (gmn_intra): OurGMNCustomIntra(
    (gnn_t): GATv2Conv(128, 128, heads=1)
    (gnn_q): GATv2Conv(128, 128, heads=1)
  )
)

dvn.encoder.gnn_wrapper_li.0.gnnm.gmn_inter
OurGMNCustomInter(
  (mlp_att_cross_q): MLP(
    (activation): ELU(alpha=1.0)
    (layers): ModuleList(
      (0): Linear(in_features=128, out_features=128, bias=True)
    )
  )
  (mlp_att_cross_t): MLP(
    (activation): ELU(alpha=1.0)
    (layers): ModuleList(
      (0): Linear(in_features=128, out_features=128, bias=True)
    )
  )
  (mlp_val_cross_q): MLP(
    (activation): ELU(alpha=1.0)
    (layers): ModuleList(
      (0): Linear(in_features=128, out_features=128, bias=True)
    )
  )
  (mlp_val_cross_t): MLP(
    (activation): ELU(alpha=1.0)
    (layers): ModuleList(
      (0): Linear(in_features=128, out_features=128, bias=True)
    )
  )
  (mlp_merge_q): MLP(
    (activation): ELU(alpha=1.0)
    (layers): ModuleList(
      (0): Linear(in_features=256, out_features=128, bias=True)
    )
  )
  (mlp_merge_t): MLP(
    (activation): ELU(alpha=1.0)
    (layers): ModuleList(
      (0): Linear(in_features=384, out_features=128, bias=True)
    )
  )
)

dvn.encoder.gnn_wrapper_li.0.gnnm.gmn_inter.mlp_att_cross_q
MLP(
  (activation): ELU(alpha=1.0)
  (layers): ModuleList(
    (0): Linear(in_features=128, out_features=128, bias=True)
  )
)

dvn.encoder.gnn_wrapper_li.0.gnnm.gmn_inter.mlp_att_cross_q.activation
ELU(alpha=1.0)

dvn.encoder.gnn_wrapper_li.0.gnnm.gmn_inter.mlp_att_cross_q.layers
ModuleList(
  (0): Linear(in_features=128, out_features=128, bias=True)
)

dvn.encoder.gnn_wrapper_li.0.gnnm.gmn_inter.mlp_att_cross_q.layers.0
Linear(in_features=128, out_features=128, bias=True)

dvn.encoder.gnn_wrapper_li.0.gnnm.gmn_inter.mlp_att_cross_t
MLP(
  (activation): ELU(alpha=1.0)
  (layers): ModuleList(
    (0): Linear(in_features=128, out_features=128, bias=True)
  )
)

dvn.encoder.gnn_wrapper_li.0.gnnm.gmn_inter.mlp_att_cross_t.activation
ELU(alpha=1.0)

dvn.encoder.gnn_wrapper_li.0.gnnm.gmn_inter.mlp_att_cross_t.layers
ModuleList(
  (0): Linear(in_features=128, out_features=128, bias=True)
)

dvn.encoder.gnn_wrapper_li.0.gnnm.gmn_inter.mlp_att_cross_t.layers.0
Linear(in_features=128, out_features=128, bias=True)

dvn.encoder.gnn_wrapper_li.0.gnnm.gmn_inter.mlp_val_cross_q
MLP(
  (activation): ELU(alpha=1.0)
  (layers): ModuleList(
    (0): Linear(in_features=128, out_features=128, bias=True)
  )
)

dvn.encoder.gnn_wrapper_li.0.gnnm.gmn_inter.mlp_val_cross_q.activation
ELU(alpha=1.0)

dvn.encoder.gnn_wrapper_li.0.gnnm.gmn_inter.mlp_val_cross_q.layers
ModuleList(
  (0): Linear(in_features=128, out_features=128, bias=True)
)

dvn.encoder.gnn_wrapper_li.0.gnnm.gmn_inter.mlp_val_cross_q.layers.0
Linear(in_features=128, out_features=128, bias=True)

dvn.encoder.gnn_wrapper_li.0.gnnm.gmn_inter.mlp_val_cross_t
MLP(
  (activation): ELU(alpha=1.0)
  (layers): ModuleList(
    (0): Linear(in_features=128, out_features=128, bias=True)
  )
)

dvn.encoder.gnn_wrapper_li.0.gnnm.gmn_inter.mlp_val_cross_t.activation
ELU(alpha=1.0)

dvn.encoder.gnn_wrapper_li.0.gnnm.gmn_inter.mlp_val_cross_t.layers
ModuleList(
  (0): Linear(in_features=128, out_features=128, bias=True)
)

dvn.encoder.gnn_wrapper_li.0.gnnm.gmn_inter.mlp_val_cross_t.layers.0
Linear(in_features=128, out_features=128, bias=True)

dvn.encoder.gnn_wrapper_li.0.gnnm.gmn_inter.mlp_merge_q
MLP(
  (activation): ELU(alpha=1.0)
  (layers): ModuleList(
    (0): Linear(in_features=256, out_features=128, bias=True)
  )
)

dvn.encoder.gnn_wrapper_li.0.gnnm.gmn_inter.mlp_merge_q.activation
ELU(alpha=1.0)

dvn.encoder.gnn_wrapper_li.0.gnnm.gmn_inter.mlp_merge_q.layers
ModuleList(
  (0): Linear(in_features=256, out_features=128, bias=True)
)

dvn.encoder.gnn_wrapper_li.0.gnnm.gmn_inter.mlp_merge_q.layers.0
Linear(in_features=256, out_features=128, bias=True)

dvn.encoder.gnn_wrapper_li.0.gnnm.gmn_inter.mlp_merge_t
MLP(
  (activation): ELU(alpha=1.0)
  (layers): ModuleList(
    (0): Linear(in_features=384, out_features=128, bias=True)
  )
)

dvn.encoder.gnn_wrapper_li.0.gnnm.gmn_inter.mlp_merge_t.activation
ELU(alpha=1.0)

dvn.encoder.gnn_wrapper_li.0.gnnm.gmn_inter.mlp_merge_t.layers
ModuleList(
  (0): Linear(in_features=384, out_features=128, bias=True)
)

dvn.encoder.gnn_wrapper_li.0.gnnm.gmn_inter.mlp_merge_t.layers.0
Linear(in_features=384, out_features=128, bias=True)

dvn.encoder.gnn_wrapper_li.0.gnnm.gmn_intra
OurGMNCustomIntra(
  (gnn_t): GATv2Conv(128, 128, heads=1)
  (gnn_q): GATv2Conv(128, 128, heads=1)
)

dvn.encoder.gnn_wrapper_li.0.gnnm.gmn_intra.gnn_t
GATv2Conv(128, 128, heads=1)

dvn.encoder.gnn_wrapper_li.0.gnnm.gmn_intra.gnn_t.aggr_module
…
dvn.encoder.gnn_wrapper_li.0.gnnm.gmn_intra.gnn_t.lin_r
Linear(128, 128, bias=True)

dvn.encoder.gnn_wrapper_li.0.gnnm.gmn_intra.gnn_q
GATv2Conv(128, 128, heads=1)

dvn.encoder.gnn_wrapper_li.0.gnnm.gmn_intra.gnn_q.aggr_module
SumAggregation()

dvn.encoder.gnn_wrapper_li.0.gnnm.gmn_intra.gnn_q.lin_l
Linear(128, 128, bias=True)

dvn.encoder.gnn_wrapper_li.0.gnnm.gmn_intra.gnn_q.lin_r
Linear(128, 128, bias=True)

dvn.encoder.gnn_wrapper_li.1
GNNWrapper(
  (gnnm): OurGMNCustomWrapper(
    (gmn_inter): OurGMNCustomInter(
      (mlp_att_cross_q): MLP(
        (activation): ELU(alpha=1.0)
        (layers): ModuleList(
          (0): Linear(in_features=128, out_features=128, bias=True)
        )
      )
      (mlp_att_cross_t): MLP(
        (activation): ELU(alpha=1.0)
        (layers): ModuleList(
          (0): Linear(in_features=128, out_features=128, bias=True)
        )
      )
      (mlp_val_cross_q): MLP(
        (activation): ELU(alpha=1.0)
        (layers): ModuleList(
          (0): Linear(in_features=128, out_features=128, bias=True)
        )
      )
      (mlp_val_cross_t): MLP(
        (activation): ELU(alpha=1.0)
        (layers): ModuleList(
          (0): Linear(in_features=128, out_features=128, bias=True)
        )
      )
      (mlp_merge_q): MLP(
        (activation): ELU(alpha=1.0)
        (layers): ModuleList(
          (0): Linear(in_features=256, out_features=128, bias=True)
        )
      )
      (mlp_merge_t): MLP(
        (activation): ELU(alpha=1.0)
        (layers): ModuleList(
          (0): Linear(in_features=384, out_features=128, bias=True)
        )
      )
    )
    (gmn_intra): OurGMNCustomIntra(
      (gnn_t): GATv2Conv(128, 128, heads=1)
      (gnn_q): GATv2Conv(128, 128, heads=1)
    )
  )
)

dvn.encoder.gnn_wrapper_li.1.gnnm
OurGMNCustomWrapper(
  (gmn_inter): OurGMNCustomInter(
    (mlp_att_cross_q): MLP(
      (activation): ELU(alpha=1.0)
      (layers): ModuleList(
        (0): Linear(in_features=128, out_features=128, bias=True)
      )
    )
    (mlp_att_cross_t): MLP(
      (activation): ELU(alpha=1.0)
      (layers): ModuleList(
        (0): Linear(in_features=128, out_features=128, bias=True)
      )
    )
    (mlp_val_cross_q): MLP(
      (activation): ELU(alpha=1.0)
      (layers): ModuleList(
        (0): Linear(in_features=128, out_features=128, bias=True)
      )
    )
    (mlp_val_cross_t): MLP(
      (activation): ELU(alpha=1.0)
      (layers): ModuleList(
        (0): Linear(in_features=128, out_features=128, bias=True)
      )
    )
    (mlp_merge_q): MLP(
      (activation): ELU(alpha=1.0)
      (layers): ModuleList(
        (0): Linear(in_features=256, out_features=128, bias=True)
      )
    )
    (mlp_merge_t): MLP(
      (activation): ELU(alpha=1.0)
      (layers): ModuleList(
        (0): Linear(in_features=384, out_features=128, bias=True)
      )
    )
  )
  (gmn_intra): OurGMNCustomIntra(
    (gnn_t): GATv2Conv(128, 128, heads=1)
    (gnn_q): GATv2Conv(128, 128, heads=1)
  )
)

dvn.encoder.gnn_wrapper_li.1.gnnm.gmn_inter
OurGMNCustomInter(
  (mlp_att_cross_q): MLP(
    (activation): ELU(alpha=1.0)
    (layers): ModuleList(
      (0): Linear(in_features=128, out_features=128, bias=True)
    )
  )
  (mlp_att_cross_t): MLP(
    (activation): ELU(alpha=1.0)
    (layers): ModuleList(
      (0): Linear(in_features=128, out_features=128, bias=True)
    )
  )
  (mlp_val_cross_q): MLP(
    (activation): ELU(alpha=1.0)
    (layers): ModuleList(
      (0): Linear(in_features=128, out_features=128, bias=True)
    )
  )
  (mlp_val_cross_t): MLP(
    (activation): ELU(alpha=1.0)
    (layers): ModuleList(
      (0): Linear(in_features=128, out_features=128, bias=True)
    )
  )
  (mlp_merge_q): MLP(
    (activation): ELU(alpha=1.0)
    (layers): ModuleList(
      (0): Linear(in_features=256, out_features=128, bias=True)
    )
  )
  (mlp_merge_t): MLP(
    (activation): ELU(alpha=1.0)
    (layers): ModuleList(
      (0): Linear(in_features=384, out_features=128, bias=True)
    )
  )
)

dvn.encoder.gnn_wrapper_li.1.gnnm.gmn_inter.mlp_att_cross_q
MLP(
  (activation): ELU(alpha=1.0)
  (layers): ModuleList(
    (0): Linear(in_features=128, out_features=128, bias=True)
  )
)

dvn.encoder.gnn_wrapper_li.1.gnnm.gmn_inter.mlp_att_cross_q.activation
ELU(alpha=1.0)

dvn.encoder.gnn_wrapper_li.1.gnnm.gmn_inter.mlp_att_cross_q.layers
ModuleList(
  (0): Linear(in_features=128, out_features=128, bias=True)
)

dvn.encoder.gnn_wrapper_li.1.gnnm.gmn_inter.mlp_att_cross_q.layers.0
Linear(in_features=128, out_features=128, bias=True)

dvn.encoder.gnn_wrapper_li.1.gnnm.gmn_inter.mlp_att_cross_t
MLP(
  (activation): ELU(alpha=1.0)
  (layers): ModuleList(
    (0): Linear(in_features=128, out_features=128, bias=True)
  )
)

dvn.encoder.gnn_wrapper_li.1.gnnm.gmn_inter.mlp_att_cross_t.activation
ELU(alpha=1.0)

dvn.encoder.gnn_wrapper_li.1.gnnm.gmn_inter.mlp_att_cross_t.layers
ModuleList(
  (0): Linear(in_features=128, out_features=128, bias=True)
)

dvn.encoder.gnn_wrapper_li.1.gnnm.gmn_inter.mlp_att_cross_t.layers.0
Linear(in_features=128, out_features=128, bias=True)

dvn.encoder.gnn_wrapper_li.1.gnnm.gmn_inter.mlp_val_cross_q
MLP(
  (activation): ELU(alpha=1.0)
  (layers): ModuleList(
    (0): Linear(in_features=128, out_features=128, bias=True)
  )
)

dvn.encoder.gnn_wrapper_li.1.gnnm.gmn_inter.mlp_val_cross_q.activation
ELU(alpha=1.0)

dvn.encoder.gnn_wrapper_li.1.gnnm.gmn_inter.mlp_val_cross_q.layers
ModuleList(
  (0): Linear(in_features=128, out_features=128, bias=True)
)

dvn.encoder.gnn_wrapper_li.1.gnnm.gmn_inter.mlp_val_cross_q.layers.0
Linear(in_features=128, out_features=128, bias=True)

dvn.encoder.gnn_wrapper_li.1.gnnm.gmn_inter.mlp_val_cross_t
MLP(
  (activation): ELU(alpha=1.0)
  (layers): ModuleList(
    (0): Linear(in_features=128, out_features=128, bias=True)
  )
)

dvn.encoder.gnn_wrapper_li.1.gnnm.gmn_inter.mlp_val_cross_t.activation
ELU(alpha=1.0)

dvn.encoder.gnn_wrapper_li.1.gnnm.gmn_inter.mlp_val_cross_t.layers
ModuleList(
  (0): Linear(in_features=128, out_features=128, bias=True)
)

dvn.encoder.gnn_wrapper_li.1.gnnm.gmn_inter.mlp_val_cross_t.layers.0
Linear(in_features=128, out_features=128, bias=True)

dvn.encoder.gnn_wrapper_li.1.gnnm.gmn_inter.mlp_merge_q
MLP(
  (activation): ELU(alpha=1.0)
  (layers): ModuleList(
    (0): Linear(in_features=256, out_features=128, bias=True)
  )
)

dvn.encoder.gnn_wrapper_li.1.gnnm.gmn_inter.mlp_merge_q.activation
ELU(alpha=1.0)

dvn.encoder.gnn_wrapper_li.1.gnnm.gmn_inter.mlp_merge_q.layers
ModuleList(
  (0): Linear(in_features=256, out_features=128, bias=True)
)

dvn.encoder.gnn_wrapper_li.1.gnnm.gmn_inter.mlp_merge_q.layers.0
Linear(in_features=256, out_features=128, bias=True)

dvn.encoder.gnn_wrapper_li.1.gnnm.gmn_inter.mlp_merge_t
MLP(
  (activation): ELU(alpha=1.0)
  (layers): ModuleList(
    (0): Linear(in_features=384, out_features=128, bias=True)
  )
)

dvn.encoder.gnn_wrapper_li.1.gnnm.gmn_inter.mlp_merge_t.activation
ELU(alpha=1.0)

dvn.encoder.gnn_wrapper_li.1.gnnm.gmn_inter.mlp_merge_t.layers
ModuleList(
  (0): Linear(in_features=384, out_features=128, bias=True)
)

dvn.encoder.gnn_wrapper_li.1.gnnm.gmn_inter.mlp_merge_t.layers.0
Linear(in_features=384, out_features=128, bias=True)

dvn.encoder.gnn_wrapper_li.1.gnnm.gmn_intra
OurGMNCustomIntra(
  (gnn_t): GATv2Conv(128, 128, heads=1)
  (gnn_q): GATv2Conv(128, 128, heads=1)
)

dvn.encoder.gnn_wrapper_li.1.gnnm.gmn_intra.gnn_t
GATv2Conv(128, 128, heads=1)

dvn.encoder.gnn_wrapper_li.1.gnnm.gmn_intra.gnn_t.aggr_module
…
Linear(128, 128, bias=True)

dvn.encoder.gnn_wrapper_li.3.gnnm.gmn_intra.gnn_t.lin_r
Linear(128, 128, bias=True)

dvn.encoder.gnn_wrapper_li.3.gnnm.gmn_intra.gnn_q
GATv2Conv(128, 128, heads=1)

dvn.encoder.gnn_wrapper_li.3.gnnm.gmn_intra.gnn_q.aggr_module
SumAggregation()

dvn.encoder.gnn_wrapper_li.3.gnnm.gmn_intra.gnn_q.lin_l
Linear(128, 128, bias=True)

dvn.encoder.gnn_wrapper_li.3.gnnm.gmn_intra.gnn_q.lin_r
Linear(128, 128, bias=True)

dvn.encoder.jk
JumpingKnowledge(max)

dvn.decoder_policy
BilinearDecoder(
  (encoder): MLP(
    (activation): ELU(alpha=1.0)
    (layers): ModuleList(
      (0): Linear(in_features=128, out_features=128, bias=True)
    )
  )
  (decoder): MLP(
    (activation): ELU(alpha=1.0)
    (layers): ModuleList(
      (0): Linear(in_features=384, out_features=32, bias=True)
      (1): Linear(in_features=32, out_features=16, bias=True)
      (2): Linear(in_features=16, out_features=8, bias=True)
      (3): Linear(in_features=8, out_features=1, bias=True)
    )
  )
)

dvn.decoder_policy.encoder
MLP(
  (activation): ELU(alpha=1.0)
  (layers): ModuleList(
    (0): Linear(in_features=128, out_features=128, bias=True)
  )
)

dvn.decoder_policy.encoder.activation
ELU(alpha=1.0)

dvn.decoder_policy.encoder.layers
ModuleList(
  (0): Linear(in_features=128, out_features=128, bias=True)
)

dvn.decoder_policy.encoder.layers.0
Linear(in_features=128, out_features=128, bias=True)

dvn.decoder_policy.decoder
MLP(
  (activation): ELU(alpha=1.0)
  (layers): ModuleList(
    (0): Linear(in_features=384, out_features=32, bias=True)
    (1): Linear(in_features=32, out_features=16, bias=True)
    (2): Linear(in_features=16, out_features=8, bias=True)
    (3): Linear(in_features=8, out_features=1, bias=True)
  )
)

dvn.decoder_policy.decoder.activation
ELU(alpha=1.0)

dvn.decoder_policy.decoder.layers
ModuleList(
  (0): Linear(in_features=384, out_features=32, bias=True)
  (1): Linear(in_features=32, out_features=16, bias=True)
  (2): Linear(in_features=16, out_features=8, bias=True)
  (3): Linear(in_features=8, out_features=1, bias=True)
)

dvn.decoder_policy.decoder.layers.0
Linear(in_features=384, out_features=32, bias=True)

dvn.decoder_policy.decoder.layers.1
Linear(in_features=32, out_features=16, bias=True)

dvn.decoder_policy.decoder.layers.2
Linear(in_features=16, out_features=8, bias=True)

dvn.decoder_policy.decoder.layers.3
Linear(in_features=8, out_features=1, bias=True)

dvn.decoder_value
QueryDecoder(
  (mlp_att): MLP(
    (activation): ELU(alpha=1.0)
    (layers): ModuleList(
      (0): Linear(in_features=128, out_features=8, bias=True)
      (1): Linear(in_features=8, out_features=1, bias=True)
    )
  )
  (mlp_val): MLP(
    (activation): ELU(alpha=1.0)
    (layers): ModuleList(
      (0): Linear(in_features=128, out_features=128, bias=True)
    )
  )
  (mlp_final): MLP(
    (activation): ELU(alpha=1.0)
    (layers): ModuleList(
      (0): Linear(in_features=128, out_features=32, bias=True)
      (1): Linear(in_features=32, out_features=16, bias=True)
      (2): Linear(in_features=16, out_features=8, bias=True)
      (3): Linear(in_features=8, out_features=4, bias=True)
      (4): Linear(in_features=4, out_features=1, bias=True)
    )
  )
  (norm): NormalizeAttention()
)

dvn.decoder_value.mlp_att
MLP(
  (activation): ELU(alpha=1.0)
  (layers): ModuleList(
    (0): Linear(in_features=128, out_features=8, bias=True)
    (1): Linear(in_features=8, out_features=1, bias=True)
  )
)

dvn.decoder_value.mlp_att.activation
ELU(alpha=1.0)

dvn.decoder_value.mlp_att.layers
ModuleList(
  (0): Linear(in_features=128, out_features=8, bias=True)
  (1): Linear(in_features=8, out_features=1, bias=True)
)

dvn.decoder_value.mlp_att.layers.0
Linear(in_features=128, out_features=8, bias=True)

dvn.decoder_value.mlp_att.layers.1
Linear(in_features=8, out_features=1, bias=True)

dvn.decoder_value.mlp_val
MLP(
  (activation): ELU(alpha=1.0)
  (layers): ModuleList(
    (0): Linear(in_features=128, out_features=128, bias=True)
  )
)

dvn.decoder_value.mlp_val.activation
ELU(alpha=1.0)

dvn.decoder_value.mlp_val.layers
ModuleList(
  (0): Linear(in_features=128, out_features=128, bias=True)
)

dvn.decoder_value.mlp_val.layers.0
Linear(in_features=128, out_features=128, bias=True)

dvn.decoder_value.mlp_final
MLP(
  (activation): ELU(alpha=1.0)
  (layers): ModuleList(
    (0): Linear(in_features=128, out_features=32, bias=True)
    (1): Linear(in_features=32, out_features=16, bias=True)
    (2): Linear(in_features=16, out_features=8, bias=True)
    (3): Linear(in_features=8, out_features=4, bias=True)
    (4): Linear(in_features=4, out_features=1, bias=True)
  )
)

dvn.decoder_value.mlp_final.activation
ELU(alpha=1.0)

dvn.decoder_value.mlp_final.layers
ModuleList(
  (0): Linear(in_features=128, out_features=32, bias=True)
  (1): Linear(in_features=32, out_features=16, bias=True)
  (2): Linear(in_features=16, out_features=8, bias=True)
  (3): Linear(in_features=8, out_features=4, bias=True)
  (4): Linear(in_features=4, out_features=1, bias=True)
)

dvn.decoder_value.mlp_final.layers.0
Linear(in_features=128, out_features=32, bias=True)

dvn.decoder_value.mlp_final.layers.1
Linear(in_features=32, out_features=16, bias=True)

dvn.decoder_value.mlp_final.layers.2
Linear(in_features=16, out_features=8, bias=True)

dvn.decoder_value.mlp_final.layers.3
Linear(in_features=8, out_features=4, bias=True)

dvn.decoder_value.mlp_final.layers.4
Linear(in_features=4, out_features=1, bias=True)

dvn.decoder_value.norm
NormalizeAttention()

dvn.norm_li
ModuleList(
  (0-3): 4 x LayerNorm((128,), eps=1e-05, elementwise_affine=True)
)

dvn.norm_li.0
LayerNorm((128,), eps=1e-05, elementwise_affine=True)

dvn.norm_li.1
LayerNorm((128,), eps=1e-05, elementwise_affine=True)

dvn.norm_li.2
LayerNorm((128,), eps=1e-05, elementwise_affine=True)

dvn.norm_li.3
LayerNorm((128,), eps=1e-05, elementwise_affine=True)

mlp_final
MLP(
  (activation): ELU(alpha=1.0)
  (layers): ModuleList(
    (0): Linear(in_features=64, out_features=32, bias=True)
    (1): Linear(in_features=32, out_features=16, bias=True)
    (2): Linear(in_features=16, out_features=8, bias=True)
    (3): Linear(in_features=8, out_features=4, bias=True)
    (4): Linear(in_features=4, out_features=1, bias=True)
  )
)

mlp_final.activation
ELU(alpha=1.0)

mlp_final.layers
ModuleList(
  (0): Linear(in_features=64, out_features=32, bias=True)
  (1): Linear(in_features=32, out_features=16, bias=True)
  (2): Linear(in_features=16, out_features=8, bias=True)
  (3): Linear(in_features=8, out_features=4, bias=True)
  (4): Linear(in_features=4, out_features=1, bias=True)
)

mlp_final.layers.0
Linear(in_features=64, out_features=32, bias=True)

mlp_final.layers.1
Linear(in_features=32, out_features=16, bias=True)

mlp_final.layers.2
Linear(in_features=16, out_features=8, bias=True)

mlp_final.layers.3
Linear(in_features=8, out_features=4, bias=True)

mlp_final.layers.4
Linear(in_features=4, out_features=1, bias=True)

model:
DVN_wrapper(
  (dvn): DVN(
    (pre_encoder): PreEncoderConcatSelectedOneHotAndMLP(
      (mlp_q): Linear(in_features=49, out_features=64, bias=True)
      (mlp_t): Linear(in_features=49, out_features=64, bias=True)
      (mlp_RWSEq): Linear(in_features=20, out_features=64, bias=True)
      (mlp_RWSEt): Linear(in_features=20, out_features=64, bias=True)
    )
    (encoder): GNNConsensusEncoder(
      (gnn_wrapper_li): ModuleList(
        (0-3): 4 x GNNWrapper(
          (gnnm): OurGMNCustomWrapper(
            (gmn_inter): OurGMNCustomInter(
              (mlp_att_cross_q): MLP(
                (activation): ELU(alpha=1.0)
                (layers): ModuleList(
                  (0): Linear(in_features=128, out_features=128, bias=True)
                )
              )
              (mlp_att_cross_t): MLP(
                (activation): ELU(alpha=1.0)
                (layers): ModuleList(
                  (0): Linear(in_features=128, out_features=128, bias=True)
                )
              )
              (mlp_val_cross_q): MLP(
                (activation): ELU(alpha=1.0)
                (layers): ModuleList(
                  (0): Linear(in_features=128, out_features=128, bias=True)
                )
              )
              (mlp_val_cross_t): MLP(
                (activation): ELU(alpha=1.0)
                (layers): ModuleList(
                  (0): Linear(in_features=128, out_features=128, bias=True)
                )
              )
              (mlp_merge_q): MLP(
                (activation): ELU(alpha=1.0)
                (layers): ModuleList(
                  (0): Linear(in_features=256, out_features=128, bias=True)
                )
              )
              (mlp_merge_t): MLP(
                (activation): ELU(alpha=1.0)
                (layers): ModuleList(
                  (0): Linear(in_features=384, out_features=128, bias=True)
                )
              )
            )
            (gmn_intra): OurGMNCustomIntra(
              (gnn_t): GATv2Conv(128, 128, heads=1)
              (gnn_q): GATv2Conv(128, 128, heads=1)
            )
          )
        )
      )
      (jk): JumpingKnowledge(max)
    )
    (decoder_policy): BilinearDecoder(
      (encoder): MLP(
        (activation): ELU(alpha=1.0)
        (layers): ModuleList(
          (0): Linear(in_features=128, out_features=128, bias=True)
        )
      )
      (decoder): MLP(
        (activation): ELU(alpha=1.0)
        (layers): ModuleList(
          (0): Linear(in_features=384, out_features=32, bias=True)
          (1): Linear(in_features=32, out_features=16, bias=True)
          (2): Linear(in_features=16, out_features=8, bias=True)
          (3): Linear(in_features=8, out_features=1, bias=True)
        )
      )
    )
    (decoder_value): QueryDecoder(
      (mlp_att): MLP(
        (activation): ELU(alpha=1.0)
        (layers): ModuleList(
          (0): Linear(in_features=128, out_features=8, bias=True)
          (1): Linear(in_features=8, out_features=1, bias=True)
        )
      )
      (mlp_val): MLP(
        (activation): ELU(alpha=1.0)
        (layers): ModuleList(
          (0): Linear(in_features=128, out_features=128, bias=True)
        )
      )
      (mlp_final): MLP(
        (activation): ELU(alpha=1.0)
        (layers): ModuleList(
          (0): Linear(in_features=128, out_features=32, bias=True)
          (1): Linear(in_features=32, out_features=16, bias=True)
          (2): Linear(in_features=16, out_features=8, bias=True)
          (3): Linear(in_features=8, out_features=4, bias=True)
          (4): Linear(in_features=4, out_features=1, bias=True)
        )
      )
      (norm): NormalizeAttention()
    )
    (norm_li): ModuleList(
      (0-3): 4 x LayerNorm((128,), eps=1e-05, elementwise_affine=True)
    )
  )
  (mlp_final): MLP(
    (activation): ELU(alpha=1.0)
    (layers): ModuleList(
      (0): Linear(in_features=64, out_features=32, bias=True)
      (1): Linear(in_features=32, out_features=16, bias=True)
      (2): Linear(in_features=16, out_features=8, bias=True)
      (3): Linear(in_features=8, out_features=4, bias=True)
      (4): Linear(in_features=4, out_features=1, bias=True)
    )
  )
)


Details:
DVN_wrapper(
  (dvn): DVN(
    (pre_encoder): PreEncoderConcatSelectedOneHotAndMLP(
      (mlp_q): Linear(in_features=49, out_features=64, bias=True)
      (mlp_t): Linear(in_features=49, out_features=64, bias=True)
      (mlp_RWSEq): Linear(in_features=20, out_features=64, bias=True)
      (mlp_RWSEt): Linear(in_features=20, out_features=64, bias=True)
    )
    (encoder): GNNConsensusEncoder(
      (gnn_wrapper_li): ModuleList(
        (0-3): 4 x GNNWrapper(
          (gnnm): OurGMNCustomWrapper(
            (gmn_inter): OurGMNCustomInter(
              (mlp_att_cross_q): MLP(
                (activation): ELU(alpha=1.0)
                (layers): ModuleList(
                  (0): Linear(in_features=128, out_features=128, bias=True)
                )
              )
              (mlp_att_cross_t): MLP(
                (activation): ELU(alpha=1.0)
                (layers): ModuleList(
                  (0): Linear(in_features=128, out_features=128, bias=True)
                )
              )
              (mlp_val_cross_q): MLP(
                (activation): ELU(alpha=1.0)
                (layers): ModuleList(
                  (0): Linear(in_features=128, out_features=128, bias=True)
                )
              )
              (mlp_val_cross_t): MLP(
                (activation): ELU(alpha=1.0)
                (layers): ModuleList(
                  (0): Linear(in_features=128, out_features=128, bias=True)
                )
              )
              (mlp_merge_q): MLP(
                (activation): ELU(alpha=1.0)
                (layers): ModuleList(
                  (0): Linear(in_features=256, out_features=128, bias=True)
                )
              )
              (mlp_merge_t): MLP(
                (activation): ELU(alpha=1.0)
                (layers): ModuleList(
                  (0): Linear(in_features=384, out_features=128, bias=True)
                )
              )
            )
            (gmn_intra): OurGMNCustomIntra(
              (gnn_t): GATv2Conv(128, 128, heads=1)
              (gnn_q): GATv2Conv(128, 128, heads=1)
            )
          )
        )
      )
      (jk): JumpingKnowledge(max)
    )
    (decoder_policy): BilinearDecoder(
      (encoder): MLP(
        (activation): ELU(alpha=1.0)
        (layers): ModuleList(
          (0): Linear(in_features=128, out_features=128, bias=True)
        )
      )
      (decoder): MLP(
        (activation): ELU(alpha=1.0)
        (layers): ModuleList(
          (0): Linear(in_features=384, out_features=32, bias=True)
          (1): Linear(in_features=32, out_features=16, bias=True)
          (2): Linear(in_features=16, out_features=8, bias=True)
          (3): Linear(in_features=8, out_features=1, bias=True)
        )
      )
    )
    (decoder_value): QueryDecoder(
      (mlp_att): MLP(
        (activation): ELU(alpha=1.0)
        (layers): ModuleList(
          (0): Linear(in_features=128, out_features=8, bias=True)
          (1): Linear(in_features=8, out_features=1, bias=True)
        )
      )
      (mlp_val): MLP(
        (activation): ELU(alpha=1.0)
        (layers): ModuleList(
          (0): Linear(in_features=128, out_features=128, bias=True)
        )
      )
      (mlp_final): MLP(
        (activation): ELU(alpha=1.0)
        (layers): ModuleList(
          (0): Linear(in_features=128, out_features=32, bias=True)
          (1): Linear(in_features=32, out_features=16, bias=True)
          (2): Linear(in_features=16, out_features=8, bias=True)
          (3): Linear(in_features=8, out_features=4, bias=True)
          (4): Linear(in_features=4, out_features=1, bias=True)
        )
      )
      (norm): NormalizeAttention()
    )
    (norm_li): ModuleList(
      (0-3): 4 x LayerNorm((128,), eps=1e-05, elementwise_affine=True)
    )
  )
  (mlp_final): MLP(
    (activation): ELU(alpha=1.0)
    (layers): ModuleList(
      (0): Linear(in_features=64, out_features=32, bias=True)
      (1): Linear(in_features=32, out_features=16, bias=True)
      (2): Linear(in_features=16, out_features=8, bias=True)
      (3): Linear(in_features=8, out_features=4, bias=True)
      (4): Linear(in_features=4, out_features=1, bias=True)
    )
  )
)

dvn
DVN(
  (pre_encoder): PreEncoderConcatSelectedOneHotAndMLP(
    (mlp_q): Linear(in_features=49, out_features=64, bias=True)
    (mlp_t): Linear(in_features=49, out_features=64, bias=True)
    (mlp_RWSEq): Linear(in_features=20, out_features=64, bias=True)
    (mlp_RWSEt): Linear(in_features=20, out_features=64, bias=True)
  )
  (encoder): GNNConsensusEncoder(
    (gnn_wrapper_li): ModuleList(
      (0-3): 4 x GNNWrapper(
        (gnnm): OurGMNCustomWrapper(
          (gmn_inter): OurGMNCustomInter(
            (mlp_att_cross_q): MLP(
              (activation): ELU(alpha=1.0)
              (layers): ModuleList(
                (0): Linear(in_features=128, out_features=128, bias=True)
              )
            )
            (mlp_att_cross_t): MLP(
              (activation): ELU(alpha=1.0)
              (layers): ModuleList(
                (0): Linear(in_features=128, out_features=128, bias=True)
              )
            )
            (mlp_val_cross_q): MLP(
              (activation): ELU(alpha=1.0)
              (layers): ModuleList(
                (0): Linear(in_features=128, out_features=128, bias=True)
              )
            )
            (mlp_val_cross_t): MLP(
              (activation): ELU(alpha=1.0)
              (layers): ModuleList(
                (0): Linear(in_features=128, out_features=128, bias=True)
              )
            )
            (mlp_merge_q): MLP(
              (activation): ELU(alpha=1.0)
              (layers): ModuleList(
                (0): Linear(in_features=256, out_features=128, bias=True)
              )
            )
            (mlp_merge_t): MLP(
              (activation): ELU(alpha=1.0)
              (layers): ModuleList(
                (0): Linear(in_features=384, out_features=128, bias=True)
              )
            )
          )
          (gmn_intra): OurGMNCustomIntra(
            (gnn_t): GATv2Conv(128, 128, heads=1)
            (gnn_q): GATv2Conv(128, 128, heads=1)
          )
        )
      )
    )
    (jk): JumpingKnowledge(max)
  )
  (decoder_policy): BilinearDecoder(
    (encoder): MLP(
      (activation): ELU(alpha=1.0)
      (layers): ModuleList(
        (0): Linear(in_features=128, out_features=128, bias=True)
      )
    )
    (decoder): MLP(
      (activation): ELU(alpha=1.0)
      (layers): ModuleList(
        (0): Linear(in_features=384, out_features=32, bias=True)
        (1): Linear(in_features=32, out_features=16, bias=True)
        (2): Linear(in_features=16, out_features=8, bias=True)
        (3): Linear(in_features=8, out_features=1, bias=True)
      )
    )
  )
  (decoder_value): QueryDecoder(
    (mlp_att): MLP(
      (activation): ELU(alpha=1.0)
      (layers): ModuleList(
        (0): Linear(in_features=128, out_features=8, bias=True)
        (1): Linear(in_features=8, out_features=1, bias=True)
      )
    )
    (mlp_val): MLP(
      (activation): ELU(alpha=1.0)
      (layers): ModuleList(
        (0): Linear(in_features=128, out_features=128, bias=True)
      )
    )
    (mlp_final): MLP(
      (activation): ELU(alpha=1.0)
      (layers): ModuleList(
        (0): Linear(in_features=128, out_features=32, bias=True)
        (1): Linear(in_features=32, out_features=16, bias=True)
        (2): Linear(in_features=16, out_features=8, bias=True)
        (3): Linear(in_features=8, out_features=4, bias=True)
        (4): Linear(in_features=4, out_features=1, bias=True)
      )
    )
    (norm): NormalizeAttention()
  )
  (norm_li): ModuleList(
    (0-3): 4 x LayerNorm((128,), eps=1e-05, elementwise_affine=True)
  )
)

dvn.pre_encoder
PreEncoderConcatSelectedOneHotAndMLP(
  (mlp_q): Linear(in_features=49, out_features=64, bias=True)
  (mlp_t): Linear(in_features=49, out_features=64, bias=True)
  (mlp_RWSEq): Linear(in_features=20, out_features=64, bias=True)
  (mlp_RWSEt): Linear(in_features=20, out_features=64, bias=True)
)

dvn.pre_encoder.mlp_q
Linear(in_features=49, out_features=64, bias=True)

dvn.pre_encoder.mlp_t
Linear(in_features=49, out_features=64, bias=True)

dvn.pre_encoder.mlp_RWSEq
Linear(in_features=20, out_features=64, bias=True)

dvn.pre_encoder.mlp_RWSEt
Linear(in_features=20, out_features=64, bias=True)

dvn.encoder
GNNConsensusEncoder(
  (gnn_wrapper_li): ModuleList(
    (0-3): 4 x GNNWrapper(
      (gnnm): OurGMNCustomWrapper(
        (gmn_inter): OurGMNCustomInter(
          (mlp_att_cross_q): MLP(
            (activation): ELU(alpha=1.0)
            (layers): ModuleList(
              (0): Linear(in_features=128, out_features=128, bias=True)
            )
          )
          (mlp_att_cross_t): MLP(
            (activation): ELU(alpha=1.0)
            (layers): ModuleList(
              (0): Linear(in_features=128, out_features=128, bias=True)
            )
          )
          (mlp_val_cross_q): MLP(
            (activation): ELU(alpha=1.0)
            (layers): ModuleList(
              (0): Linear(in_features=128, out_features=128, bias=True)
            )
          )
          (mlp_val_cross_t): MLP(
            (activation): ELU(alpha=1.0)
            (layers): ModuleList(
              (0): Linear(in_features=128, out_features=128, bias=True)
            )
          )
          (mlp_merge_q): MLP(
            (activation): ELU(alpha=1.0)
            (layers): ModuleList(
              (0): Linear(in_features=256, out_features=128, bias=True)
            )
          )
          (mlp_merge_t): MLP(
            (activation): ELU(alpha=1.0)
            (layers): ModuleList(
              (0): Linear(in_features=384, out_features=128, bias=True)
            )
          )
        )
        (gmn_intra): OurGMNCustomIntra(
          (gnn_t): GATv2Conv(128, 128, heads=1)
          (gnn_q): GATv2Conv(128, 128, heads=1)
        )
      )
    )
  )
  (jk): JumpingKnowledge(max)
)

dvn.encoder.gnn_wrapper_li
ModuleList(
  (0-3): 4 x GNNWrapper(
    (gnnm): OurGMNCustomWrapper(
      (gmn_inter): OurGMNCustomInter(
        (mlp_att_cross_q): MLP(
          (activation): ELU(alpha=1.0)
          (layers): ModuleList(
            (0): Linear(in_features=128, out_features=128, bias=True)
          )
        )
        (mlp_att_cross_t): MLP(
          (activation): ELU(alpha=1.0)
          (layers): ModuleList(
            (0): Linear(in_features=128, out_features=128, bias=True)
          )
        )
        (mlp_val_cross_q): MLP(
          (activation): ELU(alpha=1.0)
          (layers): ModuleList(
            (0): Linear(in_features=128, out_features=128, bias=True)
          )
        )
        (mlp_val_cross_t): MLP(
          (activation): ELU(alpha=1.0)
          (layers): ModuleList(
            (0): Linear(in_features=128, out_features=128, bias=True)
          )
        )
        (mlp_merge_q): MLP(
          (activation): ELU(alpha=1.0)
          (layers): ModuleList(
            (0): Linear(in_features=256, out_features=128, bias=True)
          )
        )
        (mlp_merge_t): MLP(
          (activation): ELU(alpha=1.0)
          (layers): ModuleList(
            (0): Linear(in_features=384, out_features=128, bias=True)
          )
        )
      )
      (gmn_intra): OurGMNCustomIntra(
        (gnn_t): GATv2Conv(128, 128, heads=1)
        (gnn_q): GATv2Conv(128, 128, heads=1)
      )
    )
  )
)

dvn.encoder.gnn_wrapper_li.0
GNNWrapper(
  (gnnm): OurGMNCustomWrapper(
    (gmn_inter): OurGMNCustomInter(
      (mlp_att_cross_q): MLP(
        (activation): ELU(alpha=1.0)
        (layers): ModuleList(
          (0): Linear(in_features=128, out_features=128, bias=True)
        )
      )
      (mlp_att_cross_t): MLP(
        (activation): ELU(alpha=1.0)
        (layers): ModuleList(
          (0): Linear(in_features=128, out_features=128, bias=True)
        )
      )
      (mlp_val_cross_q): MLP(
        (activation): ELU(alpha=1.0)
        (layers): ModuleList(
          (0): Linear(in_features=128, out_features=128, bias=True)
        )
      )
      (mlp_val_cross_t): MLP(
        (activation): ELU(alpha=1.0)
        (layers): ModuleList(
          (0): Linear(in_features=128, out_features=128, bias=True)
        )
      )
      (mlp_merge_q): MLP(
        (activation): ELU(alpha=1.0)
        (layers): ModuleList(
          (0): Linear(in_features=256, out_features=128, bias=True)
        )
      )
      (mlp_merge_t): MLP(
        (activation): ELU(alpha=1.0)
        (layers): ModuleList(
          (0): Linear(in_features=384, out_features=128, bias=True)
        )
      )
    )
    (gmn_intra): OurGMNCustomIntra(
      (gnn_t): GATv2Conv(128, 128, heads=1)
      (gnn_q): GATv2Conv(128, 128, heads=1)
    )
  )
)

dvn.encoder.gnn_wrapper_li.0.gnnm
OurGMNCustomWrapper(
  (gmn_inter): OurGMNCustomInter(
    (mlp_att_cross_q): MLP(
      (activation): ELU(alpha=1.0)
      (layers): ModuleList(
        (0): Linear(in_features=128, out_features=128, bias=True)
      )
    )
    (mlp_att_cross_t): MLP(
      (activation): ELU(alpha=1.0)
      (layers): ModuleList(
        (0): Linear(in_features=128, out_features=128, bias=True)
      )
    )
    (mlp_val_cross_q): MLP(
      (activation): ELU(alpha=1.0)
      (layers): ModuleList(
        (0): Linear(in_features=128, out_features=128, bias=True)
      )
    )
    (mlp_val_cross_t): MLP(
      (activation): ELU(alpha=1.0)
      (layers): ModuleList(
        (0): Linear(in_features=128, out_features=128, bias=True)
      )
    )
    (mlp_merge_q): MLP(
      (activation): ELU(alpha=1.0)
      (layers): ModuleList(
        (0): Linear(in_features=256, out_features=128, bias=True)
      )
    )
    (mlp_merge_t): MLP(
      (activation): ELU(alpha=1.0)
      (layers): ModuleList(
        (0): Linear(in_features=384, out_features=128, bias=True)
      )
    )
  )
  (gmn_intra): OurGMNCustomIntra(
    (gnn_t): GATv2Conv(128, 128, heads=1)
    (gnn_q): GATv2Conv(128, 128, heads=1)
  )
)

dvn.encoder.gnn_wrapper_li.0.gnnm.gmn_inter
OurGMNCustomInter(
  (mlp_att_cross_q): MLP(
    (activation): ELU(alpha=1.0)
    (layers): ModuleList(
      (0): Linear(in_features=128, out_features=128, bias=True)
    )
  )
  (mlp_att_cross_t): MLP(
    (activation): ELU(alpha=1.0)
    (layers): ModuleList(
      (0): Linear(in_features=128, out_features=128, bias=True)
    )
  )
  (mlp_val_cross_q): MLP(
    (activation): ELU(alpha=1.0)
    (layers): ModuleList(
      (0): Linear(in_features=128, out_features=128, bias=True)
    )
  )
  (mlp_val_cross_t): MLP(
    (activation): ELU(alpha=1.0)
    (layers): ModuleList(
      (0): Linear(in_features=128, out_features=128, bias=True)
    )
  )
  (mlp_merge_q): MLP(
    (activation): ELU(alpha=1.0)
    (layers): ModuleList(
      (0): Linear(in_features=256, out_features=128, bias=True)
    )
  )
  (mlp_merge_t): MLP(
    (activation): ELU(alpha=1.0)
    (layers): ModuleList(
      (0): Linear(in_features=384, out_features=128, bias=True)
    )
  )
)

dvn.encoder.gnn_wrapper_li.0.gnnm.gmn_inter.mlp_att_cross_q
MLP(
  (activation): ELU(alpha=1.0)
  (layers): ModuleList(
    (0): Linear(in_features=128, out_features=128, bias=True)
  )
)

dvn.encoder.gnn_wrapper_li.0.gnnm.gmn_inter.mlp_att_cross_q.activation
ELU(alpha=1.0)

dvn.encoder.gnn_wrapper_li.0.gnnm.gmn_inter.mlp_att_cross_q.layers
ModuleList(
  (0): Linear(in_features=128, out_features=128, bias=True)
)

dvn.encoder.gnn_wrapper_li.0.gnnm.gmn_inter.mlp_att_cross_q.layers.0
Linear(in_features=128, out_features=128, bias=True)

dvn.encoder.gnn_wrapper_li.0.gnnm.gmn_inter.mlp_att_cross_t
MLP(
  (activation): ELU(alpha=1.0)
  (layers): ModuleList(
    (0): Linear(in_features=128, out_features=128, bias=True)
  )
)

dvn.encoder.gnn_wrapper_li.0.gnnm.gmn_inter.mlp_att_cross_t.activation
ELU(alpha=1.0)

dvn.encoder.gnn_wrapper_li.0.gnnm.gmn_inter.mlp_att_cross_t.layers
ModuleList(
  (0): Linear(in_features=128, out_features=128, bias=True)
)

dvn.encoder.gnn_wrapper_li.0.gnnm.gmn_inter.mlp_att_cross_t.layers.0
Linear(in_features=128, out_features=128, bias=True)

dvn.encoder.gnn_wrapper_li.0.gnnm.gmn_inter.mlp_val_cross_q
MLP(
  (activation): ELU(alpha=1.0)
  (layers): ModuleList(
    (0): Linear(in_features=128, out_features=128, bias=True)
  )
)

dvn.encoder.gnn_wrapper_li.0.gnnm.gmn_inter.mlp_val_cross_q.activation
ELU(alpha=1.0)

dvn.encoder.gnn_wrapper_li.0.gnnm.gmn_inter.mlp_val_cross_q.layers
ModuleList(
  (0): Linear(in_features=128, out_features=128, bias=True)
)

dvn.encoder.gnn_wrapper_li.0.gnnm.gmn_inter.mlp_val_cross_q.layers.0
Linear(in_features=128, out_features=128, bias=True)

dvn.encoder.gnn_wrapper_li.0.gnnm.gmn_inter.mlp_val_cross_t
MLP(
  (activation): ELU(alpha=1.0)
  (layers): ModuleList(
    (0): Linear(in_features=128, out_features=128, bias=True)
  )
)

dvn.encoder.gnn_wrapper_li.0.gnnm.gmn_inter.mlp_val_cross_t.activation
ELU(alpha=1.0)

dvn.encoder.gnn_wrapper_li.0.gnnm.gmn_inter.mlp_val_cross_t.layers
ModuleList(
  (0): Linear(in_features=128, out_features=128, bias=True)
)

dvn.encoder.gnn_wrapper_li.0.gnnm.gmn_inter.mlp_val_cross_t.layers.0
Linear(in_features=128, out_features=128, bias=True)

dvn.encoder.gnn_wrapper_li.0.gnnm.gmn_inter.mlp_merge_q
MLP(
  (activation): ELU(alpha=1.0)
  (layers): ModuleList(
    (0): Linear(in_features=256, out_features=128, bias=True)
  )
)

dvn.encoder.gnn_wrapper_li.0.gnnm.gmn_inter.mlp_merge_q.activation
ELU(alpha=1.0)

dvn.encoder.gnn_wrapper_li.0.gnnm.gmn_inter.mlp_merge_q.layers
ModuleList(
  (0): Linear(in_features=256, out_features=128, bias=True)
)

dvn.encoder.gnn_wrapper_li.0.gnnm.gmn_inter.mlp_merge_q.layers.0
Linear(in_features=256, out_features=128, bias=True)

dvn.encoder.gnn_wrapper_li.0.gnnm.gmn_inter.mlp_merge_t
MLP(
  (activation): ELU(alpha=1.0)
  (layers): ModuleList(
    (0): Linear(in_features=384, out_features=128, bias=True)
  )
)

dvn.encoder.gnn_wrapper_li.0.gnnm.gmn_inter.mlp_merge_t.activation
ELU(alpha=1.0)

dvn.encoder.gnn_wrapper_li.0.gnnm.gmn_inter.mlp_merge_t.layers
ModuleList(
  (0): Linear(in_features=384, out_features=128, bias=True)
)

dvn.encoder.gnn_wrapper_li.0.gnnm.gmn_inter.mlp_merge_t.layers.0
Linear(in_features=384, out_features=128, bias=True)

dvn.encoder.gnn_wrapper_li.0.gnnm.gmn_intra
OurGMNCustomIntra(
  (gnn_t): GATv2Conv(128, 128, heads=1)
  (gnn_q): GATv2Conv(128, 128, heads=1)
)

dvn.encoder.gnn_wrapper_li.0.gnnm.gmn_intra.gnn_t
GATv2Conv(128, 128, heads=1)

dvn.encoder.gnn_wrapper_li.0.gnnm.gmn_intra.gnn_t.aggr_module
…
dvn.encoder.gnn_wrapper_li.2.gnnm.gmn_intra.gnn_t.lin_r
Linear(128, 128, bias=True)

dvn.encoder.gnn_wrapper_li.2.gnnm.gmn_intra.gnn_q
GATv2Conv(128, 128, heads=1)

dvn.encoder.gnn_wrapper_li.2.gnnm.gmn_intra.gnn_q.aggr_module
SumAggregation()

dvn.encoder.gnn_wrapper_li.2.gnnm.gmn_intra.gnn_q.lin_l
Linear(128, 128, bias=True)

dvn.encoder.gnn_wrapper_li.2.gnnm.gmn_intra.gnn_q.lin_r
Linear(128, 128, bias=True)

dvn.encoder.gnn_wrapper_li.3
GNNWrapper(
  (gnnm): OurGMNCustomWrapper(
    (gmn_inter): OurGMNCustomInter(
      (mlp_att_cross_q): MLP(
        (activation): ELU(alpha=1.0)
        (layers): ModuleList(
          (0): Linear(in_features=128, out_features=128, bias=True)
        )
      )
      (mlp_att_cross_t): MLP(
        (activation): ELU(alpha=1.0)
        (layers): ModuleList(
          (0): Linear(in_features=128, out_features=128, bias=True)
        )
      )
      (mlp_val_cross_q): MLP(
        (activation): ELU(alpha=1.0)
        (layers): ModuleList(
          (0): Linear(in_features=128, out_features=128, bias=True)
        )
      )
      (mlp_val_cross_t): MLP(
        (activation): ELU(alpha=1.0)
        (layers): ModuleList(
          (0): Linear(in_features=128, out_features=128, bias=True)
        )
      )
      (mlp_merge_q): MLP(
        (activation): ELU(alpha=1.0)
        (layers): ModuleList(
          (0): Linear(in_features=256, out_features=128, bias=True)
        )
      )
      (mlp_merge_t): MLP(
        (activation): ELU(alpha=1.0)
        (layers): ModuleList(
          (0): Linear(in_features=384, out_features=128, bias=True)
        )
      )
    )
    (gmn_intra): OurGMNCustomIntra(
      (gnn_t): GATv2Conv(128, 128, heads=1)
      (gnn_q): GATv2Conv(128, 128, heads=1)
    )
  )
)

dvn.encoder.gnn_wrapper_li.3.gnnm
OurGMNCustomWrapper(
  (gmn_inter): OurGMNCustomInter(
    (mlp_att_cross_q): MLP(
      (activation): ELU(alpha=1.0)
      (layers): ModuleList(
        (0): Linear(in_features=128, out_features=128, bias=True)
      )
    )
    (mlp_att_cross_t): MLP(
      (activation): ELU(alpha=1.0)
      (layers): ModuleList(
        (0): Linear(in_features=128, out_features=128, bias=True)
      )
    )
    (mlp_val_cross_q): MLP(
      (activation): ELU(alpha=1.0)
      (layers): ModuleList(
        (0): Linear(in_features=128, out_features=128, bias=True)
      )
    )
    (mlp_val_cross_t): MLP(
      (activation): ELU(alpha=1.0)
      (layers): ModuleList(
        (0): Linear(in_features=128, out_features=128, bias=True)
      )
    )
    (mlp_merge_q): MLP(
      (activation): ELU(alpha=1.0)
      (layers): ModuleList(
        (0): Linear(in_features=256, out_features=128, bias=True)
      )
    )
    (mlp_merge_t): MLP(
      (activation): ELU(alpha=1.0)
      (layers): ModuleList(
        (0): Linear(in_features=384, out_features=128, bias=True)
      )
    )
  )
  (gmn_intra): OurGMNCustomIntra(
    (gnn_t): GATv2Conv(128, 128, heads=1)
    (gnn_q): GATv2Conv(128, 128, heads=1)
  )
)

dvn.encoder.gnn_wrapper_li.3.gnnm.gmn_inter
OurGMNCustomInter(
  (mlp_att_cross_q): MLP(
    (activation): ELU(alpha=1.0)
    (layers): ModuleList(
      (0): Linear(in_features=128, out_features=128, bias=True)
    )
  )
  (mlp_att_cross_t): MLP(
    (activation): ELU(alpha=1.0)
    (layers): ModuleList(
      (0): Linear(in_features=128, out_features=128, bias=True)
    )
  )
  (mlp_val_cross_q): MLP(
    (activation): ELU(alpha=1.0)
    (layers): ModuleList(
      (0): Linear(in_features=128, out_features=128, bias=True)
    )
  )
  (mlp_val_cross_t): MLP(
    (activation): ELU(alpha=1.0)
    (layers): ModuleList(
      (0): Linear(in_features=128, out_features=128, bias=True)
    )
  )
  (mlp_merge_q): MLP(
    (activation): ELU(alpha=1.0)
    (layers): ModuleList(
      (0): Linear(in_features=256, out_features=128, bias=True)
    )
  )
  (mlp_merge_t): MLP(
    (activation): ELU(alpha=1.0)
    (layers): ModuleList(
      (0): Linear(in_features=384, out_features=128, bias=True)
    )
  )
)

dvn.encoder.gnn_wrapper_li.3.gnnm.gmn_inter.mlp_att_cross_q
MLP(
  (activation): ELU(alpha=1.0)
  (layers): ModuleList(
    (0): Linear(in_features=128, out_features=128, bias=True)
  )
)

dvn.encoder.gnn_wrapper_li.3.gnnm.gmn_inter.mlp_att_cross_q.activation
ELU(alpha=1.0)

dvn.encoder.gnn_wrapper_li.3.gnnm.gmn_inter.mlp_att_cross_q.layers
ModuleList(
  (0): Linear(in_features=128, out_features=128, bias=True)
)

dvn.encoder.gnn_wrapper_li.3.gnnm.gmn_inter.mlp_att_cross_q.layers.0
Linear(in_features=128, out_features=128, bias=True)

dvn.encoder.gnn_wrapper_li.3.gnnm.gmn_inter.mlp_att_cross_t
MLP(
  (activation): ELU(alpha=1.0)
  (layers): ModuleList(
    (0): Linear(in_features=128, out_features=128, bias=True)
  )
)

dvn.encoder.gnn_wrapper_li.3.gnnm.gmn_inter.mlp_att_cross_t.activation
ELU(alpha=1.0)

dvn.encoder.gnn_wrapper_li.3.gnnm.gmn_inter.mlp_att_cross_t.layers
ModuleList(
  (0): Linear(in_features=128, out_features=128, bias=True)
)

dvn.encoder.gnn_wrapper_li.3.gnnm.gmn_inter.mlp_att_cross_t.layers.0
Linear(in_features=128, out_features=128, bias=True)

dvn.encoder.gnn_wrapper_li.3.gnnm.gmn_inter.mlp_val_cross_q
MLP(
  (activation): ELU(alpha=1.0)
  (layers): ModuleList(
    (0): Linear(in_features=128, out_features=128, bias=True)
  )
)

dvn.encoder.gnn_wrapper_li.3.gnnm.gmn_inter.mlp_val_cross_q.activation
ELU(alpha=1.0)

dvn.encoder.gnn_wrapper_li.3.gnnm.gmn_inter.mlp_val_cross_q.layers
ModuleList(
  (0): Linear(in_features=128, out_features=128, bias=True)
)

dvn.encoder.gnn_wrapper_li.3.gnnm.gmn_inter.mlp_val_cross_q.layers.0
Linear(in_features=128, out_features=128, bias=True)

dvn.encoder.gnn_wrapper_li.3.gnnm.gmn_inter.mlp_val_cross_t
MLP(
  (activation): ELU(alpha=1.0)
  (layers): ModuleList(
    (0): Linear(in_features=128, out_features=128, bias=True)
  )
)

dvn.encoder.gnn_wrapper_li.3.gnnm.gmn_inter.mlp_val_cross_t.activation
ELU(alpha=1.0)

dvn.encoder.gnn_wrapper_li.3.gnnm.gmn_inter.mlp_val_cross_t.layers
ModuleList(
  (0): Linear(in_features=128, out_features=128, bias=True)
)

dvn.encoder.gnn_wrapper_li.3.gnnm.gmn_inter.mlp_val_cross_t.layers.0
Linear(in_features=128, out_features=128, bias=True)

dvn.encoder.gnn_wrapper_li.3.gnnm.gmn_inter.mlp_merge_q
MLP(
  (activation): ELU(alpha=1.0)
  (layers): ModuleList(
    (0): Linear(in_features=256, out_features=128, bias=True)
  )
)

dvn.encoder.gnn_wrapper_li.3.gnnm.gmn_inter.mlp_merge_q.activation
ELU(alpha=1.0)

dvn.encoder.gnn_wrapper_li.3.gnnm.gmn_inter.mlp_merge_q.layers
ModuleList(
  (0): Linear(in_features=256, out_features=128, bias=True)
)

dvn.encoder.gnn_wrapper_li.3.gnnm.gmn_inter.mlp_merge_q.layers.0
Linear(in_features=256, out_features=128, bias=True)

dvn.encoder.gnn_wrapper_li.3.gnnm.gmn_inter.mlp_merge_t
MLP(
  (activation): ELU(alpha=1.0)
  (layers): ModuleList(
    (0): Linear(in_features=384, out_features=128, bias=True)
  )
)

