…
-timeout_val=120  --train_dataset=imsm-dblp_unlabeled  --train_path_indices=[[0, 5], [0, 5], [0, 5], [0, 5], [0, 50], [0, 50], [0, 50]]  --train_sample_size_li=[None]  --train_subgroup=list  --train_subgroup_list=['dense_64']  --use_NN_for_u_score=False  --use_is_early_pruning=False  --use_node_mask_diameter=False  --user=kli16  --val_dataset=imsm-dblp_unlabeled  --val_every_games=1  --val_path_indices=[95, 100]  --val_sample_size_li=[None]  --val_subgroup=dense_64  --val_subgroup_list=None

model:
DVN_wrapper(
  (dvn): DVN(
    (pre_encoder): PreEncoderConcatSelectedOneHotAndMLP(
      (mlp_q): Linear(in_features=49, out_features=64, bias=True)
      (mlp_t): Linear(in_features=49, out_features=64, bias=True)
      (mlp_RWSEq): Linear(in_features=20, out_features=64, bias=True)
      (mlp_RWSEt): Linear(in_features=20, out_features=64, bias=True)
    )
    (encoder): GNNConsensusEncoder(
      (gnn_wrapper_li): ModuleList(
        (0-3): 4 x GNNWrapper(
          (gnnm): OurGMNCustomWrapper(
            (gmn_inter): OurGMNCustomInter(
              (mlp_att_cross_q): MLP(
                (activation): ELU(alpha=1.0)
                (layers): ModuleList(
                  (0): Linear(in_features=128, out_features=128, bias=True)
                )
              )
              (mlp_att_cross_t): MLP(
                (activation): ELU(alpha=1.0)
                (layers): ModuleList(
                  (0): Linear(in_features=128, out_features=128, bias=True)
                )
              )
              (mlp_val_cross_q): MLP(
                (activation): ELU(alpha=1.0)
                (layers): ModuleList(
                  (0): Linear(in_features=128, out_features=128, bias=True)
                )
              )
              (mlp_val_cross_t): MLP(
                (activation): ELU(alpha=1.0)
                (layers): ModuleList(
                  (0): Linear(in_features=128, out_features=128, bias=True)
                )
              )
              (mlp_merge_q): MLP(
                (activation): ELU(alpha=1.0)
                (layers): ModuleList(
                  (0): Linear(in_features=256, out_features=128, bias=True)
                )
              )
              (mlp_merge_t): MLP(
                (activation): ELU(alpha=1.0)
                (layers): ModuleList(
                  (0): Linear(in_features=384, out_features=128, bias=True)
                )
              )
            )
            (gmn_intra): OurGMNCustomIntra(
              (gnn_t): GPSLayer(
                summary: dim_h=128, local_gnn_type=CustomGatedGCN, global_model_type=Transformer, heads=4
                (local_model): GatedGCNLayer()
                (self_attn): MultiheadAttention(
                  (out_proj): NonDynamicallyQuantizableLinear(in_features=128, out_features=128, bias=True)
                )
                (norm1_local): BatchNorm1d(128, eps=1e-05, momentum=0.1, affine=True, track_running_stats=True)
                (norm1_attn): BatchNorm1d(128, eps=1e-05, momentum=0.1, affine=True, track_running_stats=True)
                (dropout_local): Dropout(p=0.0, inplace=False)
                (dropout_attn): Dropout(p=0.0, inplace=False)
                (ff_linear1): Linear(in_features=128, out_features=256, bias=True)
                (ff_linear2): Linear(in_features=256, out_features=128, bias=True)
                (act_fn_ff): ReLU()
                (norm2): BatchNorm1d(128, eps=1e-05, momentum=0.1, affine=True, track_running_stats=True)
                (ff_dropout1): Dropout(p=0.0, inplace=False)
                (ff_dropout2): Dropout(p=0.0, inplace=False)
              )
              (gnn_q): GPSLayer(
                summary: dim_h=128, local_gnn_type=CustomGatedGCN, global_model_type=Transformer, heads=4
                (local_model): GatedGCNLayer()
                (self_attn): MultiheadAttention(
                  (out_proj): NonDynamicallyQuantizableLinear(in_features=128, out_features=128, bias=True)
                )
                (norm1_local): BatchNorm1d(128, eps=1e-05, momentum=0.1, affine=True, track_running_stats=True)
                (norm1_attn): BatchNorm1d(128, eps=1e-05, momentum=0.1, affine=True, track_running_stats=True)
                (dropout_local): Dropout(p=0.0, inplace=False)
                (dropout_attn): Dropout(p=0.0, inplace=False)
                (ff_linear1): Linear(in_features=128, out_features=256, bias=True)
                (ff_linear2): Linear(in_features=256, out_features=128, bias=True)
                (act_fn_ff): ReLU()
                (norm2): BatchNorm1d(128, eps=1e-05, momentum=0.1, affine=True, track_running_stats=True)
                (ff_dropout1): Dropout(p=0.0, inplace=False)
                (ff_dropout2): Dropout(p=0.0, inplace=False)
              )
            )
          )
        )
      )
      (jk): JumpingKnowledge(max)
    )
    (gt_egde_encoder): DummyEdgeEncoder(
      (encoder): Embedding(1, 128)
    )
    (gq_egde_encoder): DummyEdgeEncoder(
      (encoder): Embedding(1, 128)
    )
    (decoder_policy): BilinearDecoder(
      (encoder): MLP(
        (activation): ELU(alpha=1.0)
        (layers): ModuleList(
          (0): Linear(in_features=128, out_features=128, bias=True)
        )
      )
      (decoder): MLP(
        (activation): ELU(alpha=1.0)
        (layers): ModuleList(
          (0): Linear(in_features=384, out_features=32, bias=True)
          (1): Linear(in_features=32, out_features=16, bias=True)
          (2): Linear(in_features=16, out_features=8, bias=True)
          (3): Linear(in_features=8, out_features=1, bias=True)
        )
      )
    )
    (decoder_value): QueryDecoder(
      (mlp_att): MLP(
        (activation): ELU(alpha=1.0)
        (layers): ModuleList(
          (0): Linear(in_features=128, out_features=8, bias=True)
          (1): Linear(in_features=8, out_features=1, bias=True)
        )
      )
      (mlp_val): MLP(
        (activation): ELU(alpha=1.0)
        (layers): ModuleList(
          (0): Linear(in_features=128, out_features=128, bias=True)
        )
      )
      (mlp_final): MLP(
        (activation): ELU(alpha=1.0)
        (layers): ModuleList(
          (0): Linear(in_features=128, out_features=32, bias=True)
          (1): Linear(in_features=32, out_features=16, bias=True)
          (2): Linear(in_features=16, out_features=8, bias=True)
          (3): Linear(in_features=8, out_features=4, bias=True)
          (4): Linear(in_features=4, out_features=1, bias=True)
        )
      )
      (norm): NormalizeAttention()
    )
    (norm_li): ModuleList(
      (0-3): 4 x LayerNorm((128,), eps=1e-05, elementwise_affine=True)
    )
  )
  (mlp_final): MLP(
    (activation): ELU(alpha=1.0)
    (layers): ModuleList(
      (0): Linear(in_features=64, out_features=32, bias=True)
      (1): Linear(in_features=32, out_features=16, bias=True)
      (2): Linear(in_features=16, out_features=8, bias=True)
      (3): Linear(in_features=8, out_features=4, bias=True)
      (4): Linear(in_features=4, out_features=1, bias=True)
    )
  )
)


Details:
DVN_wrapper(
  (dvn): DVN(
    (pre_encoder): PreEncoderConcatSelectedOneHotAndMLP(
      (mlp_q): Linear(in_features=49, out_features=64, bias=True)
      (mlp_t): Linear(in_features=49, out_features=64, bias=True)
      (mlp_RWSEq): Linear(in_features=20, out_features=64, bias=True)
      (mlp_RWSEt): Linear(in_features=20, out_features=64, bias=True)
    )
    (encoder): GNNConsensusEncoder(
      (gnn_wrapper_li): ModuleList(
        (0-3): 4 x GNNWrapper(
          (gnnm): OurGMNCustomWrapper(
            (gmn_inter): OurGMNCustomInter(
              (mlp_att_cross_q): MLP(
                (activation): ELU(alpha=1.0)
                (layers): ModuleList(
                  (0): Linear(in_features=128, out_features=128, bias=True)
                )
              )
              (mlp_att_cross_t): MLP(
                (activation): ELU(alpha=1.0)
                (layers): ModuleList(
                  (0): Linear(in_features=128, out_features=128, bias=True)
                )
              )
              (mlp_val_cross_q): MLP(
                (activation): ELU(alpha=1.0)
                (layers): ModuleList(
                  (0): Linear(in_features=128, out_features=128, bias=True)
                )
              )
              (mlp_val_cross_t): MLP(
                (activation): ELU(alpha=1.0)
                (layers): ModuleList(
                  (0): Linear(in_features=128, out_features=128, bias=True)
                )
              )
              (mlp_merge_q): MLP(
                (activation): ELU(alpha=1.0)
                (layers): ModuleList(
                  (0): Linear(in_features=256, out_features=128, bias=True)
                )
              )
              (mlp_merge_t): MLP(
                (activation): ELU(alpha=1.0)
                (layers): ModuleList(
                  (0): Linear(in_features=384, out_features=128, bias=True)
                )
              )
            )
            (gmn_intra): OurGMNCustomIntra(
              (gnn_t): GPSLayer(
                summary: dim_h=128, local_gnn_type=CustomGatedGCN, global_model_type=Transformer, heads=4
                (local_model): GatedGCNLayer()
                (self_attn): MultiheadAttention(
                  (out_proj): NonDynamicallyQuantizableLinear(in_features=128, out_features=128, bias=True)
                )
                (norm1_local): BatchNorm1d(128, eps=1e-05, momentum=0.1, affine=True, track_running_stats=True)
                (norm1_attn): BatchNorm1d(128, eps=1e-05, momentum=0.1, affine=True, track_running_stats=True)
                (dropout_local): Dropout(p=0.0, inplace=False)
                (dropout_attn): Dropout(p=0.0, inplace=False)
                (ff_linear1): Linear(in_features=128, out_features=256, bias=True)
                (ff_linear2): Linear(in_features=256, out_features=128, bias=True)
                (act_fn_ff): ReLU()
                (norm2): BatchNorm1d(128, eps=1e-05, momentum=0.1, affine=True, track_running_stats=True)
                (ff_dropout1): Dropout(p=0.0, inplace=False)
                (ff_dropout2): Dropout(p=0.0, inplace=False)
              )
              (gnn_q): GPSLayer(
                summary: dim_h=128, local_gnn_type=CustomGatedGCN, global_model_type=Transformer, heads=4
                (local_model): GatedGCNLayer()
                (self_attn): MultiheadAttention(
                  (out_proj): NonDynamicallyQuantizableLinear(in_features=128, out_features=128, bias=True)
                )
                (norm1_local): BatchNorm1d(128, eps=1e-05, momentum=0.1, affine=True, track_running_stats=True)
                (norm1_attn): BatchNorm1d(128, eps=1e-05, momentum=0.1, affine=True, track_running_stats=True)
                (dropout_local): Dropout(p=0.0, inplace=False)
                (dropout_attn): Dropout(p=0.0, inplace=False)
                (ff_linear1): Linear(in_features=128, out_features=256, bias=True)
                (ff_linear2): Linear(in_features=256, out_features=128, bias=True)
                (act_fn_ff): ReLU()
                (norm2): BatchNorm1d(128, eps=1e-05, momentum=0.1, affine=True, track_running_stats=True)
                (ff_dropout1): Dropout(p=0.0, inplace=False)
                (ff_dropout2): Dropout(p=0.0, inplace=False)
              )
            )
          )
        )
      )
      (jk): JumpingKnowledge(max)
    )
    (gt_egde_encoder): DummyEdgeEncoder(
      (encoder): Embedding(1, 128)
    )
    (gq_egde_encoder): DummyEdgeEncoder(
      (encoder): Embedding(1, 128)
    )
    (decoder_policy): BilinearDecoder(
      (encoder): MLP(
        (activation): ELU(alpha=1.0)
        (layers): ModuleList(
          (0): Linear(in_features=128, out_features=128, bias=True)
        )
      )
      (decoder): MLP(
        (activation): ELU(alpha=1.0)
        (layers): ModuleList(
          (0): Linear(in_features=384, out_features=32, bias=True)
          (1): Linear(in_features=32, out_features=16, bias=True)
          (2): Linear(in_features=16, out_features=8, bias=True)
          (3): Linear(in_features=8, out_features=1, bias=True)
        )
      )
    )
    (decoder_value): QueryDecoder(
      (mlp_att): MLP(
        (activation): ELU(alpha=1.0)
        (layers): ModuleList(
          (0): Linear(in_features=128, out_features=8, bias=True)
          (1): Linear(in_features=8, out_features=1, bias=True)
        )
      )
      (mlp_val): MLP(
        (activation): ELU(alpha=1.0)
        (layers): ModuleList(
          (0): Linear(in_features=128, out_features=128, bias=True)
        )
      )
      (mlp_final): MLP(
        (activation): ELU(alpha=1.0)
        (layers): ModuleList(
          (0): Linear(in_features=128, out_features=32, bias=True)
          (1): Linear(in_features=32, out_features=16, bias=True)
          (2): Linear(in_features=16, out_features=8, bias=True)
          (3): Linear(in_features=8, out_features=4, bias=True)
          (4): Linear(in_features=4, out_features=1, bias=True)
        )
      )
      (norm): NormalizeAttention()
    )
    (norm_li): ModuleList(
      (0-3): 4 x LayerNorm((128,), eps=1e-05, elementwise_affine=True)
    )
  )
  (mlp_final): MLP(
    (activation): ELU(alpha=1.0)
    (layers): ModuleList(
      (0): Linear(in_features=64, out_features=32, bias=True)
      (1): Linear(in_features=32, out_features=16, bias=True)
      (2): Linear(in_features=16, out_features=8, bias=True)
      (3): Linear(in_features=8, out_features=4, bias=True)
      (4): Linear(in_features=4, out_features=1, bias=True)
    )
  )
)

dvn
DVN(
  (pre_encoder): PreEncoderConcatSelectedOneHotAndMLP(
    (mlp_q): Linear(in_features=49, out_features=64, bias=True)
    (mlp_t): Linear(in_features=49, out_features=64, bias=True)
    (mlp_RWSEq): Linear(in_features=20, out_features=64, bias=True)
    (mlp_RWSEt): Linear(in_features=20, out_features=64, bias=True)
  )
  (encoder): GNNConsensusEncoder(
    (gnn_wrapper_li): ModuleList(
      (0-3): 4 x GNNWrapper(
        (gnnm): OurGMNCustomWrapper(
          (gmn_inter): OurGMNCustomInter(
            (mlp_att_cross_q): MLP(
              (activation): ELU(alpha=1.0)
              (layers): ModuleList(
                (0): Linear(in_features=128, out_features=128, bias=True)
              )
            )
            (mlp_att_cross_t): MLP(
              (activation): ELU(alpha=1.0)
              (layers): ModuleList(
                (0): Linear(in_features=128, out_features=128, bias=True)
              )
            )
            (mlp_val_cross_q): MLP(
              (activation): ELU(alpha=1.0)
              (layers): ModuleList(
                (0): Linear(in_features=128, out_features=128, bias=True)
              )
            )
            (mlp_val_cross_t): MLP(
              (activation): ELU(alpha=1.0)
              (layers): ModuleList(
                (0): Linear(in_features=128, out_features=128, bias=True)
              )
            )
            (mlp_merge_q): MLP(
              (activation): ELU(alpha=1.0)
              (layers): ModuleList(
                (0): Linear(in_features=256, out_features=128, bias=True)
              )
            )
            (mlp_merge_t): MLP(
              (activation): ELU(alpha=1.0)
              (layers): ModuleList(
                (0): Linear(in_features=384, out_features=128, bias=True)
              )
            )
          )
          (gmn_intra): OurGMNCustomIntra(
            (gnn_t): GPSLayer(
              summary: dim_h=128, local_gnn_type=CustomGatedGCN, global_model_type=Transformer, heads=4
              (local_model): GatedGCNLayer()
              (self_attn): MultiheadAttention(
                (out_proj): NonDynamicallyQuantizableLinear(in_features=128, out_features=128, bias=True)
              )
              (norm1_local): BatchNorm1d(128, eps=1e-05, momentum=0.1, affine=True, track_running_stats=True)
              (norm1_attn): BatchNorm1d(128, eps=1e-05, momentum=0.1, affine=True, track_running_stats=True)
              (dropout_local): Dropout(p=0.0, inplace=False)
              (dropout_attn): Dropout(p=0.0, inplace=False)
              (ff_linear1): Linear(in_features=128, out_features=256, bias=True)
              (ff_linear2): Linear(in_features=256, out_features=128, bias=True)
              (act_fn_ff): ReLU()
              (norm2): BatchNorm1d(128, eps=1e-05, momentum=0.1, affine=True, track_running_stats=True)
              (ff_dropout1): Dropout(p=0.0, inplace=False)
              (ff_dropout2): Dropout(p=0.0, inplace=False)
            )
            (gnn_q): GPSLayer(
              summary: dim_h=128, local_gnn_type=CustomGatedGCN, global_model_type=Transformer, heads=4
              (local_model): GatedGCNLayer()
              (self_attn): MultiheadAttention(
                (out_proj): NonDynamicallyQuantizableLinear(in_features=128, out_features=128, bias=True)
              )
              (norm1_local): BatchNorm1d(128, eps=1e-05, momentum=0.1, affine=True, track_running_stats=True)
              (norm1_attn): BatchNorm1d(128, eps=1e-05, momentum=0.1, affine=True, track_running_stats=True)
              (dropout_local): Dropout(p=0.0, inplace=False)
              (dropout_attn): Dropout(p=0.0, inplace=False)
              (ff_linear1): Linear(in_features=128, out_features=256, bias=True)
              (ff_linear2): Linear(in_features=256, out_features=128, bias=True)
              (act_fn_ff): ReLU()
              (norm2): BatchNorm1d(128, eps=1e-05, momentum=0.1, affine=True, track_running_stats=True)
              (ff_dropout1): Dropout(p=0.0, inplace=False)
              (ff_dropout2): Dropout(p=0.0, inplace=False)
            )
          )
        )
      )
    )
    (jk): JumpingKnowledge(max)
  )
  (gt_egde_encoder): DummyEdgeEncoder(
    (encoder): Embedding(1, 128)
  )
  (gq_egde_encoder): DummyEdgeEncoder(
    (encoder): Embedding(1, 128)
  )
  (decoder_policy): BilinearDecoder(
    (encoder): MLP(
      (activation): ELU(alpha=1.0)
      (layers): ModuleList(
        (0): Linear(in_features=128, out_features=128, bias=True)
      )
    )
    (decoder): MLP(
      (activation): ELU(alpha=1.0)
      (layers): ModuleList(
        (0): Linear(in_features=384, out_features=32, bias=True)
        (1): Linear(in_features=32, out_features=16, bias=True)
        (2): Linear(in_features=16, out_features=8, bias=True)
        (3): Linear(in_features=8, out_features=1, bias=True)
      )
    )
  )
  (decoder_value): QueryDecoder(
    (mlp_att): MLP(
      (activation): ELU(alpha=1.0)
      (layers): ModuleList(
        (0): Linear(in_features=128, out_features=8, bias=True)
        (1): Linear(in_features=8, out_features=1, bias=True)
      )
    )
    (mlp_val): MLP(
      (activation): ELU(alpha=1.0)
      (layers): ModuleList(
        (0): Linear(in_features=128, out_features=128, bias=True)
      )
    )
    (mlp_final): MLP(
      (activation): ELU(alpha=1.0)
      (layers): ModuleList(
        (0): Linear(in_features=128, out_features=32, bias=True)
        (1): Linear(in_features=32, out_features=16, bias=True)
        (2): Linear(in_features=16, out_features=8, bias=True)
        (3): Linear(in_features=8, out_features=4, bias=True)
        (4): Linear(in_features=4, out_features=1, bias=True)
      )
    )
    (norm): NormalizeAttention()
  )
  (norm_li): ModuleList(
    (0-3): 4 x LayerNorm((128,), eps=1e-05, elementwise_affine=True)
  )
)

dvn.pre_encoder
PreEncoderConcatSelectedOneHotAndMLP(
  (mlp_q): Linear(in_features=49, out_features=64, bias=True)
  (mlp_t): Linear(in_features=49, out_features=64, bias=True)
  (mlp_RWSEq): Linear(in_features=20, out_features=64, bias=True)
  (mlp_RWSEt): Linear(in_features=20, out_features=64, bias=True)
)

dvn.pre_encoder.mlp_q
Linear(in_features=49, out_features=64, bias=True)

dvn.pre_encoder.mlp_t
Linear(in_features=49, out_features=64, bias=True)

dvn.pre_encoder.mlp_RWSEq
Linear(in_features=20, out_features=64, bias=True)

dvn.pre_encoder.mlp_RWSEt
Linear(in_features=20, out_features=64, bias=True)

dvn.encoder
GNNConsensusEncoder(
  (gnn_wrapper_li): ModuleList(
    (0-3): 4 x GNNWrapper(
      (gnnm): OurGMNCustomWrapper(
        (gmn_inter): OurGMNCustomInter(
          (mlp_att_cross_q): MLP(
            (activation): ELU(alpha=1.0)
            (layers): ModuleList(
              (0): Linear(in_features=128, out_features=128, bias=True)
            )
          )
          (mlp_att_cross_t): MLP(
            (activation): ELU(alpha=1.0)
            (layers): ModuleList(
              (0): Linear(in_features=128, out_features=128, bias=True)
            )
          )
          (mlp_val_cross_q): MLP(
            (activation): ELU(alpha=1.0)
            (layers): ModuleList(
              (0): Linear(in_features=128, out_features=128, bias=True)
            )
          )
          (mlp_val_cross_t): MLP(
            (activation): ELU(alpha=1.0)
            (layers): ModuleList(
              (0): Linear(in_features=128, out_features=128, bias=True)
            )
          )
          (mlp_merge_q): MLP(
            (activation): ELU(alpha=1.0)
            (layers): ModuleList(
              (0): Linear(in_features=256, out_features=128, bias=True)
            )
          )
          (mlp_merge_t): MLP(
            (activation): ELU(alpha=1.0)
            (layers): ModuleList(
              (0): Linear(in_features=384, out_features=128, bias=True)
            )
          )
        )
        (gmn_intra): OurGMNCustomIntra(
          (gnn_t): GPSLayer(
            summary: dim_h=128, local_gnn_type=CustomGatedGCN, global_model_type=Transformer, heads=4
            (local_model): GatedGCNLayer()
            (self_attn): MultiheadAttention(
              (out_proj): NonDynamicallyQuantizableLinear(in_features=128, out_features=128, bias=True)
            )
            (norm1_local): BatchNorm1d(128, eps=1e-05, momentum=0.1, affine=True, track_running_stats=True)
            (norm1_attn): BatchNorm1d(128, eps=1e-05, momentum=0.1, affine=True, track_running_stats=True)
            (dropout_local): Dropout(p=0.0, inplace=False)
            (dropout_attn): Dropout(p=0.0, inplace=False)
            (ff_linear1): Linear(in_features=128, out_features=256, bias=True)
            (ff_linear2): Linear(in_features=256, out_features=128, bias=True)
            (act_fn_ff): ReLU()
            (norm2): BatchNorm1d(128, eps=1e-05, momentum=0.1, affine=True, track_running_stats=True)
            (ff_dropout1): Dropout(p=0.0, inplace=False)
            (ff_dropout2): Dropout(p=0.0, inplace=False)
          )
          (gnn_q): GPSLayer(
            summary: dim_h=128, local_gnn_type=CustomGatedGCN, global_model_type=Transformer, heads=4
            (local_model): GatedGCNLayer()
            (self_attn): MultiheadAttention(
              (out_proj): NonDynamicallyQuantizableLinear(in_features=128, out_features=128, bias=True)
            )
            (norm1_local): BatchNorm1d(128, eps=1e-05, momentum=0.1, affine=True, track_running_stats=True)
            (norm1_attn): BatchNorm1d(128, eps=1e-05, momentum=0.1, affine=True, track_running_stats=True)
            (dropout_local): Dropout(p=0.0, inplace=False)
            (dropout_attn): Dropout(p=0.0, inplace=False)
            (ff_linear1): Linear(in_features=128, out_features=256, bias=True)
            (ff_linear2): Linear(in_features=256, out_features=128, bias=True)
            (act_fn_ff): ReLU()
            (norm2): BatchNorm1d(128, eps=1e-05, momentum=0.1, affine=True, track_running_stats=True)
            (ff_dropout1): Dropout(p=0.0, inplace=False)
            (ff_dropout2): Dropout(p=0.0, inplace=False)
          )
        )
      )
    )
  )
  (jk): JumpingKnowledge(max)
)

dvn.encoder.gnn_wrapper_li
ModuleList(
  (0-3): 4 x GNNWrapper(
    (gnnm): OurGMNCustomWrapper(
      (gmn_inter): OurGMNCustomInter(
        (mlp_att_cross_q): MLP(
          (activation): ELU(alpha=1.0)
          (layers): ModuleList(
            (0): Linear(in_features=128, out_features=128, bias=True)
          )
        )
        (mlp_att_cross_t): MLP(
          (activation): ELU(alpha=1.0)
          (layers): ModuleList(
            (0): Linear(in_features=128, out_features=128, bias=True)
          )
        )
        (mlp_val_cross_q): MLP(
          (activation): ELU(alpha=1.0)
          (layers): ModuleList(
            (0): Linear(in_features=128, out_features=128, bias=True)
          )
        )
        (mlp_val_cross_t): MLP(
          (activation): ELU(alpha=1.0)
          (layers): ModuleList(
            (0): Linear(in_features=128, out_features=128, bias=True)
          )
        )
        (mlp_merge_q): MLP(
          (activation): ELU(alpha=1.0)
          (layers): ModuleList(
            (0): Linear(in_features=256, out_features=128, bias=True)
          )
        )
        (mlp_merge_t): MLP(
          (activation): ELU(alpha=1.0)
          (layers): ModuleList(
            (0): Linear(in_features=384, out_features=128, bias=True)
          )
        )
      )
      (gmn_intra): OurGMNCustomIntra(
        (gnn_t): GPSLayer(
          summary: dim_h=128, local_gnn_type=CustomGatedGCN, global_model_type=Transformer, heads=4
          (local_model): GatedGCNLayer()
          (self_attn): MultiheadAttention(
            (out_proj): NonDynamicallyQuantizableLinear(in_features=128, out_features=128, bias=True)
          )
          (norm1_local): BatchNorm1d(128, eps=1e-05, momentum=0.1, affine=True, track_running_stats=True)
          (norm1_attn): BatchNorm1d(128, eps=1e-05, momentum=0.1, affine=True, track_running_stats=True)
          (dropout_local): Dropout(p=0.0, inplace=False)
          (dropout_attn): Dropout(p=0.0, inplace=False)
          (ff_linear1): Linear(in_features=128, out_features=256, bias=True)
          (ff_linear2): Linear(in_features=256, out_features=128, bias=True)
          (act_fn_ff): ReLU()
          (norm2): BatchNorm1d(128, eps=1e-05, momentum=0.1, affine=True, track_running_stats=True)
          (ff_dropout1): Dropout(p=0.0, inplace=False)
          (ff_dropout2): Dropout(p=0.0, inplace=False)
        )
        (gnn_q): GPSLayer(
          summary: dim_h=128, local_gnn_type=CustomGatedGCN, global_model_type=Transformer, heads=4
          (local_model): GatedGCNLayer()
          (self_attn): MultiheadAttention(
            (out_proj): NonDynamicallyQuantizableLinear(in_features=128, out_features=128, bias=True)
          )
          (norm1_local): BatchNorm1d(128, eps=1e-05, momentum=0.1, affine=True, track_running_stats=True)
          (norm1_attn): BatchNorm1d(128, eps=1e-05, momentum=0.1, affine=True, track_running_stats=True)
          (dropout_local): Dropout(p=0.0, inplace=False)
          (dropout_attn): Dropout(p=0.0, inplace=False)
          (ff_linear1): Linear(in_features=128, out_features=256, bias=True)
          (ff_linear2): Linear(in_features=256, out_features=128, bias=True)
          (act_fn_ff): ReLU()
          (norm2): BatchNorm1d(128, eps=1e-05, momentum=0.1, affine=True, track_running_stats=True)
          (ff_dropout1): Dropout(p=0.0, inplace=False)
          (ff_dropout2): Dropout(p=0.0, inplace=False)
        )
      )
    )
  )
)

dvn.encoder.gnn_wrapper_li.0
GNNWrapper(
  (gnnm): OurGMNCustomWrapper(
    (gmn_inter): OurGMNCustomInter(
      (mlp_att_cross_q): MLP(
        (activation): ELU(alpha=1.0)
        (layers): ModuleList(
          (0): Linear(in_features=128, out_features=128, bias=True)
        )
      )
      (mlp_att_cross_t): MLP(
        (activation): ELU(alpha=1.0)
        (layers): ModuleList(
          (0): Linear(in_features=128, out_features=128, bias=True)
        )
      )
      (mlp_val_cross_q): MLP(
        (activation): ELU(alpha=1.0)
        (layers): ModuleList(
          (0): Linear(in_features=128, out_features=128, bias=True)
        )
      )
      (mlp_val_cross_t): MLP(
        (activation): ELU(alpha=1.0)
        (layers): ModuleList(
          (0): Linear(in_features=128, out_features=128, bias=True)
        )
      )
      (mlp_merge_q): MLP(
        (activation): ELU(alpha=1.0)
        (layers): ModuleList(
          (0): Linear(in_features=256, out_features=128, bias=True)
        )
      )
      (mlp_merge_t): MLP(
        (activation): ELU(alpha=1.0)
        (layers): ModuleList(
          (0): Linear(in_features=384, out_features=128, bias=True)
        )
      )
    )
    (gmn_intra): OurGMNCustomIntra(
      (gnn_t): GPSLayer(
        summary: dim_h=128, local_gnn_type=CustomGatedGCN, global_model_type=Transformer, heads=4
        (local_model): GatedGCNLayer()
        (self_attn): MultiheadAttention(
          (out_proj): NonDynamicallyQuantizableLinear(in_features=128, out_features=128, bias=True)
        )
        (norm1_local): BatchNorm1d(128, eps=1e-05, momentum=0.1, affine=True, track_running_stats=True)
        (norm1_attn): BatchNorm1d(128, eps=1e-05, momentum=0.1, affine=True, track_running_stats=True)
        (dropout_local): Dropout(p=0.0, inplace=False)
        (dropout_attn): Dropout(p=0.0, inplace=False)
        (ff_linear1): Linear(in_features=128, out_features=256, bias=True)
        (ff_linear2): Linear(in_features=256, out_features=128, bias=True)
        (act_fn_ff): ReLU()
        (norm2): BatchNorm1d(128, eps=1e-05, momentum=0.1, affine=True, track_running_stats=True)
        (ff_dropout1): Dropout(p=0.0, inplace=False)
        (ff_dropout2): Dropout(p=0.0, inplace=False)
      )
      (gnn_q): GPSLayer(
        summary: dim_h=128, local_gnn_type=CustomGatedGCN, global_model_type=Transformer, heads=4
        (local_model): GatedGCNLayer()
        (self_attn): MultiheadAttention(
          (out_proj): NonDynamicallyQuantizableLinear(in_features=128, out_features=128, bias=True)
        )
        (norm1_local): BatchNorm1d(128, eps=1e-05, momentum=0.1, affine=True, track_running_stats=True)
        (norm1_attn): BatchNorm1d(128, eps=1e-05, momentum=0.1, affine=True, track_running_stats=True)
        (dropout_local): Dropout(p=0.0, inplace=False)
        (dropout_attn): Dropout(p=0.0, inplace=False)
        (ff_linear1): Linear(in_features=128, out_features=256, bias=True)
        (ff_linear2): Linear(in_features=256, out_features=128, bias=True)
        (act_fn_ff): ReLU()
        (norm2): BatchNorm1d(128, eps=1e-05, momentum=0.1, affine=True, track_running_stats=True)
        (ff_dropout1): Dropout(p=0.0, inplace=False)
        (ff_dropout2): Dropout(p=0.0, inplace=False)
      )
    )
  )
)

dvn.encoder.gnn_wrapper_li.0.gnnm
OurGMNCustomWrapper(
  (gmn_inter): OurGMNCustomInter(
    (mlp_att_cross_q): MLP(
      (activation): ELU(alpha=1.0)
      (layers): ModuleList(
        (0): Linear(in_features=128, out_features=128, bias=True)
      )
    )
    (mlp_att_cross_t): MLP(
      (activation): ELU(alpha=1.0)
      (layers): ModuleList(
        (0): Linear(in_features=128, out_features=128, bias=True)
      )
    )
    (mlp_val_cross_q): MLP(
      (activation): ELU(alpha=1.0)
      (layers): ModuleList(
        (0): Linear(in_features=128, out_features=128, bias=True)
      )
    )
    (mlp_val_cross_t): MLP(
      (activation): ELU(alpha=1.0)
      (layers): ModuleList(
        (0): Linear(in_features=128, out_features=128, bias=True)
      )
    )
    (mlp_merge_q): MLP(
      (activation): ELU(alpha=1.0)
      (layers): ModuleList(
        (0): Linear(in_features=256, out_features=128, bias=True)
      )
    )
    (mlp_merge_t): MLP(
      (activation): ELU(alpha=1.0)
      (layers): ModuleList(
        (0): Linear(in_features=384, out_features=128, bias=True)
      )
    )
  )
  (gmn_intra): OurGMNCustomIntra(
    (gnn_t): GPSLayer(
      summary: dim_h=128, local_gnn_type=CustomGatedGCN, global_model_type=Transformer, heads=4
      (local_model): GatedGCNLayer()
      (self_attn): MultiheadAttention(
        (out_proj): NonDynamicallyQuantizableLinear(in_features=128, out_features=128, bias=True)
      )
      (norm1_local): BatchNorm1d(128, eps=1e-05, momentum=0.1, affine=True, track_running_stats=True)
      (norm1_attn): BatchNorm1d(128, eps=1e-05, momentum=0.1, affine=True, track_running_stats=True)
      (dropout_local): Dropout(p=0.0, inplace=False)
      (dropout_attn): Dropout(p=0.0, inplace=False)
      (ff_linear1): Linear(in_features=128, out_features=256, bias=True)
      (ff_linear2): Linear(in_features=256, out_features=128, bias=True)
      (act_fn_ff): ReLU()
      (norm2): BatchNorm1d(128, eps=1e-05, momentum=0.1, affine=True, track_running_stats=True)
      (ff_dropout1): Dropout(p=0.0, inplace=False)
      (ff_dropout2): Dropout(p=0.0, inplace=False)
    )
    (gnn_q): GPSLayer(
      summary: dim_h=128, local_gnn_type=CustomGatedGCN, global_model_type=Transformer, heads=4
      (local_model): GatedGCNLayer()
      (self_attn): MultiheadAttention(
        (out_proj): NonDynamicallyQuantizableLinear(in_features=128, out_features=128, bias=True)
      )
      (norm1_local): BatchNorm1d(128, eps=1e-05, momentum=0.1, affine=True, track_running_stats=True)
      (norm1_attn): BatchNorm1d(128, eps=1e-05, momentum=0.1, affine=True, track_running_stats=True)
      (dropout_local): Dropout(p=0.0, inplace=False)
      (dropout_attn): Dropout(p=0.0, inplace=False)
      (ff_linear1): Linear(in_features=128, out_features=256, bias=True)
      (ff_linear2): Linear(in_features=256, out_features=128, bias=True)
      (act_fn_ff): ReLU()
      (norm2): BatchNorm1d(128, eps=1e-05, momentum=0.1, affine=True, track_running_stats=True)
      (ff_dropout1): Dropout(p=0.0, inplace=False)
      (ff_dropout2): Dropout(p=0.0, inplace=False)
    )
  )
)

dvn.encoder.gnn_wrapper_li.0.gnnm.gmn_inter
OurGMNCustomInter(
  (mlp_att_cross_q): MLP(
    (activation): ELU(alpha=1.0)
    (layers): ModuleList(
      (0): Linear(in_features=128, out_features=128, bias=True)
    )
  )
  (mlp_att_cross_t): MLP(
    (activation): ELU(alpha=1.0)
    (layers): ModuleList(
      (0): Linear(in_features=128, out_features=128, bias=True)
    )
  )
  (mlp_val_cross_q): MLP(
    (activation): ELU(alpha=1.0)
    (layers): ModuleList(
      (0): Linear(in_features=128, out_features=128, bias=True)
    )
  )
  (mlp_val_cross_t): MLP(
    (activation): ELU(alpha=1.0)
    (layers): ModuleList(
      (0): Linear(in_features=128, out_features=128, bias=True)
    )
  )
  (mlp_merge_q): MLP(
    (activation): ELU(alpha=1.0)
    (layers): ModuleList(
      (0): Linear(in_features=256, out_features=128, bias=True)
    )
  )
  (mlp_merge_t): MLP(
    (activation): ELU(alpha=1.0)
    (layers): ModuleList(
      (0): Linear(in_features=384, out_features=128, bias=True)
    )
  )
)

dvn.encoder.gnn_wrapper_li.0.gnnm.gmn_inter.mlp_att_cross_q
MLP(
  (activation): ELU(alpha=1.0)
  (layers): ModuleList(
    (0): Linear(in_features=128, out_features=128, bias=True)
  )
)

dvn.encoder.gnn_wrapper_li.0.gnnm.gmn_inter.mlp_att_cross_q.activation
ELU(alpha=1.0)

dvn.encoder.gnn_wrapper_li.0.gnnm.gmn_inter.mlp_att_cross_q.layers
ModuleList(
  (0): Linear(in_features=128, out_features=128, bias=True)
)

dvn.encoder.gnn_wrapper_li.0.gnnm.gmn_inter.mlp_att_cross_q.layers.0
Linear(in_features=128, out_features=128, bias=True)

dvn.encoder.gnn_wrapper_li.0.gnnm.gmn_inter.mlp_att_cross_t
MLP(
  (activation): ELU(alpha=1.0)
  (layers): ModuleList(
    (0): Linear(in_features=128, out_features=128, bias=True)
  )
)

dvn.encoder.gnn_wrapper_li.0.gnnm.gmn_inter.mlp_att_cross_t.activation
ELU(alpha=1.0)

dvn.encoder.gnn_wrapper_li.0.gnnm.gmn_inter.mlp_att_cross_t.layers
ModuleList(
  (0): Linear(in_features=128, out_features=128, bias=True)
)

dvn.encoder.gnn_wrapper_li.0.gnnm.gmn_inter.mlp_att_cross_t.layers.0
Linear(in_features=128, out_features=128, bias=True)

dvn.encoder.gnn_wrapper_li.0.gnnm.gmn_inter.mlp_val_cross_q
MLP(
  (activation): ELU(alpha=1.0)
  (layers): ModuleList(
    (0): Linear(in_features=128, out_features=128, bias=True)
  )
)

dvn.encoder.gnn_wrapper_li.0.gnnm.gmn_inter.mlp_val_cross_q.activation
ELU(alpha=1.0)

dvn.encoder.gnn_wrapper_li.0.gnnm.gmn_inter.mlp_val_cross_q.layers
ModuleList(
  (0): Linear(in_features=128, out_features=128, bias=True)
)

dvn.encoder.gnn_wrapper_li.0.gnnm.gmn_inter.mlp_val_cross_q.layers.0
Linear(in_features=128, out_features=128, bias=True)

dvn.encoder.gnn_wrapper_li.0.gnnm.gmn_inter.mlp_val_cross_t
MLP(
  (activation): ELU(alpha=1.0)
  (layers): ModuleList(
    (0): Linear(in_features=128, out_features=128, bias=True)
  )
)

dvn.encoder.gnn_wrapper_li.0.gnnm.gmn_inter.mlp_val_cross_t.activation
ELU(alpha=1.0)

dvn.encoder.gnn_wrapper_li.0.gnnm.gmn_inter.mlp_val_cross_t.layers
ModuleList(
  (0): Linear(in_features=128, out_features=128, bias=True)
)

dvn.encoder.gnn_wrapper_li.0.gnnm.gmn_inter.mlp_val_cross_t.layers.0
Linear(in_features=128, out_features=128, bias=True)

dvn.encoder.gnn_wrapper_li.0.gnnm.gmn_inter.mlp_merge_q
MLP(
  (activation): ELU(alpha=1.0)
  (layers): ModuleList(
    (0): Linear(in_features=256, out_features=128, bias=True)
  )
)

dvn.encoder.gnn_wrapper_li.0.gnnm.gmn_inter.mlp_merge_q.activation
ELU(alpha=1.0)

dvn.encoder.gnn_wrapper_li.0.gnnm.gmn_inter.mlp_merge_q.layers
ModuleList(
  (0): Linear(in_features=256, out_features=128, bias=True)
)

dvn.encoder.gnn_wrapper_li.0.gnnm.gmn_inter.mlp_merge_q.layers.0
Linear(in_features=256, out_features=128, bias=True)

dvn.encoder.gnn_wrapper_li.0.gnnm.gmn_inter.mlp_merge_t
MLP(
  (activation): ELU(alpha=1.0)
  (layers): ModuleList(
    (0): Linear(in_features=384, out_features=128, bias=True)
  )
)

dvn.encoder.gnn_wrapper_li.0.gnnm.gmn_inter.mlp_merge_t.activation
ELU(alpha=1.0)

dvn.encoder.gnn_wrapper_li.0.gnnm.gmn_inter.mlp_merge_t.layers
ModuleList(
  (0): Linear(in_features=384, out_features=128, bias=True)
)

dvn.encoder.gnn_wrapper_li.0.gnnm.gmn_inter.mlp_merge_t.layers.0
Linear(in_features=384, out_features=128, bias=True)

dvn.encoder.gnn_wrapper_li.0.gnnm.gmn_intra
OurGMNCustomIntra(
  (gnn_t): GPSLayer(
    summary: dim_h=128, local_gnn_type=CustomGatedGCN, global_model_type=Transformer, heads=4
    (local_model): GatedGCNLayer()
    (self_attn): MultiheadAttention(
      (out_proj): NonDynamicallyQuantizableLinear(in_features=128, out_features=128, bias=True)
    )
    (norm1_local): BatchNorm1d(128, eps=1e-05, momentum=0.1, affine=True, track_running_stats=True)
    (norm1_attn): BatchNorm1d(128, eps=1e-05, momentum=0.1, affine=True, track_running_stats=True)
    (dropout_local): Dropout(p=0.0, inplace=False)
    (dropout_attn): Dropout(p=0.0, inplace=False)
    (ff_linear1): Linear(in_features=128, out_features=256, bias=True)
    (ff_linear2): Linear(in_features=256, out_features=128, bias=True)
    (act_fn_ff): ReLU()
    (norm2): BatchNorm1d(128, eps=1e-05, momentum=0.1, affine=True, track_running_stats=True)
    (ff_dropout1): Dropout(p=0.0, inplace=False)
    (ff_dropout2): Dropout(p=0.0, inplace=False)
  )
  (gnn_q): GPSLayer(
    summary: dim_h=128, local_gnn_type=CustomGatedGCN, global_model_type=Transformer, heads=4
    (local_model): GatedGCNLayer()
    (self_attn): MultiheadAttention(
      (out_proj): NonDynamicallyQuantizableLinear(in_features=128, out_features=128, bias=True)
    )
    (norm1_local): BatchNorm1d(128, eps=1e-05, momentum=0.1, affine=True, track_running_stats=True)
    (norm1_attn): BatchNorm1d(128, eps=1e-05, momentum=0.1, affine=True, track_running_stats=True)
    (dropout_local): Dropout(p=0.0, inplace=False)
    (dropout_attn): Dropout(p=0.0, inplace=False)
    (ff_linear1): Linear(in_features=128, out_features=256, bias=True)
    (ff_linear2): Linear(in_features=256, out_features=128, bias=True)
    (act_fn_ff): ReLU()
    (norm2): BatchNorm1d(128, eps=1e-05, momentum=0.1, affine=True, track_running_stats=True)
    (ff_dropout1): Dropout(p=0.0, inplace=False)
    (ff_dropout2): Dropout(p=0.0, inplace=False)
  )
)

dvn.encoder.gnn_wrapper_li.0.gnnm.gmn_intra.gnn_t
GPSLayer(
  summary: dim_h=128, local_gnn_type=CustomGatedGCN, global_model_type=Transformer, heads=4
  (local_model): GatedGCNLayer()
  (self_attn): MultiheadAttention(
    (out_proj): NonDynamicallyQuantizableLinear(in_features=128, out_features=128, bias=True)
  )
  (norm1_local): BatchNorm1d(128, eps=1e-05, momentum=0.1, affine=True, track_running_stats=True)
  (norm1_attn): BatchNorm1d(128, eps=1e-05, momentum=0.1, affine=True, track_running_stats=True)
  (dropout_local): Dropout(p=0.0, inplace=False)
  (dropout_attn): Dropout(p=0.0, inplace=False)
  (ff_linear1): Linear(in_features=128, out_features=256, bias=True)
  (ff_linear2): Linear(in_features=256, out_features=128, bias=True)
  (act_fn_ff): ReLU()
  (norm2): BatchNorm1d(128, eps=1e-05, momentum=0.1, affine=True, track_running_stats=True)
  (ff_dropout1): Dropout(p=0.0, inplace=False)
  (ff_dropout2): Dropout(p=0.0, inplace=False)
)

dvn.encoder.gnn_wrapper_li.0.gnnm.gmn_intra.gnn_t.local_model
GatedGCNLayer()

dvn.encoder.gnn_wrapper_li.0.gnnm.gmn_intra.gnn_t.local_model.aggr_module
SumAggregation()

dvn.encoder.gnn_wrapper_li.0.gnnm.gmn_intra.gnn_t.local_model.A
…
BatchNorm1d(128, eps=1e-05, momentum=0.1, affine=True, track_running_stats=True)

dvn.encoder.gnn_wrapper_li.0.gnnm.gmn_intra.gnn_t.ff_dropout1
Dropout(p=0.0, inplace=False)

dvn.encoder.gnn_wrapper_li.0.gnnm.gmn_intra.gnn_t.ff_dropout2
Dropout(p=0.0, inplace=False)

dvn.encoder.gnn_wrapper_li.0.gnnm.gmn_intra.gnn_q
GPSLayer(
  summary: dim_h=128, local_gnn_type=CustomGatedGCN, global_model_type=Transformer, heads=4
  (local_model): GatedGCNLayer()
  (self_attn): MultiheadAttention(
    (out_proj): NonDynamicallyQuantizableLinear(in_features=128, out_features=128, bias=True)
  )
  (norm1_local): BatchNorm1d(128, eps=1e-05, momentum=0.1, affine=True, track_running_stats=True)
  (norm1_attn): BatchNorm1d(128, eps=1e-05, momentum=0.1, affine=True, track_running_stats=True)
  (dropout_local): Dropout(p=0.0, inplace=False)
  (dropout_attn): Dropout(p=0.0, inplace=False)
  (ff_linear1): Linear(in_features=128, out_features=256, bias=True)
  (ff_linear2): Linear(in_features=256, out_features=128, bias=True)
  (act_fn_ff): ReLU()
  (norm2): BatchNorm1d(128, eps=1e-05, momentum=0.1, affine=True, track_running_stats=True)
  (ff_dropout1): Dropout(p=0.0, inplace=False)
  (ff_dropout2): Dropout(p=0.0, inplace=False)
)

dvn.encoder.gnn_wrapper_li.0.gnnm.gmn_intra.gnn_q.local_model
GatedGCNLayer()

dvn.encoder.gnn_wrapper_li.0.gnnm.gmn_intra.gnn_q.local_model.aggr_module
SumAggregation()

dvn.encoder.gnn_wrapper_li.0.gnnm.gmn_intra.gnn_q.local_model.A
…
dvn.encoder.gnn_wrapper_li.0.gnnm.gmn_intra.gnn_q.act_fn_ff
ReLU()

dvn.encoder.gnn_wrapper_li.0.gnnm.gmn_intra.gnn_q.norm2
BatchNorm1d(128, eps=1e-05, momentum=0.1, affine=True, track_running_stats=True)

dvn.encoder.gnn_wrapper_li.0.gnnm.gmn_intra.gnn_q.ff_dropout1
Dropout(p=0.0, inplace=False)

dvn.encoder.gnn_wrapper_li.0.gnnm.gmn_intra.gnn_q.ff_dropout2
Dropout(p=0.0, inplace=False)

dvn.encoder.gnn_wrapper_li.1
GNNWrapper(
  (gnnm): OurGMNCustomWrapper(
    (gmn_inter): OurGMNCustomInter(
      (mlp_att_cross_q): MLP(
        (activation): ELU(alpha=1.0)
        (layers): ModuleList(
          (0): Linear(in_features=128, out_features=128, bias=True)
        )
      )
      (mlp_att_cross_t): MLP(
        (activation): ELU(alpha=1.0)
        (layers): ModuleList(
          (0): Linear(in_features=128, out_features=128, bias=True)
        )
      )
      (mlp_val_cross_q): MLP(
        (activation): ELU(alpha=1.0)
        (layers): ModuleList(
          (0): Linear(in_features=128, out_features=128, bias=True)
        )
      )
      (mlp_val_cross_t): MLP(
        (activation): ELU(alpha=1.0)
        (layers): ModuleList(
          (0): Linear(in_features=128, out_features=128, bias=True)
        )
      )
      (mlp_merge_q): MLP(
        (activation): ELU(alpha=1.0)
        (layers): ModuleList(
          (0): Linear(in_features=256, out_features=128, bias=True)
        )
      )
      (mlp_merge_t): MLP(
        (activation): ELU(alpha=1.0)
        (layers): ModuleList(
          (0): Linear(in_features=384, out_features=128, bias=True)
        )
      )
    )
    (gmn_intra): OurGMNCustomIntra(
      (gnn_t): GPSLayer(
        summary: dim_h=128, local_gnn_type=CustomGatedGCN, global_model_type=Transformer, heads=4
        (local_model): GatedGCNLayer()
        (self_attn): MultiheadAttention(
          (out_proj): NonDynamicallyQuantizableLinear(in_features=128, out_features=128, bias=True)
        )
        (norm1_local): BatchNorm1d(128, eps=1e-05, momentum=0.1, affine=True, track_running_stats=True)
        (norm1_attn): BatchNorm1d(128, eps=1e-05, momentum=0.1, affine=True, track_running_stats=True)
        (dropout_local): Dropout(p=0.0, inplace=False)
        (dropout_attn): Dropout(p=0.0, inplace=False)
        (ff_linear1): Linear(in_features=128, out_features=256, bias=True)
        (ff_linear2): Linear(in_features=256, out_features=128, bias=True)
        (act_fn_ff): ReLU()
        (norm2): BatchNorm1d(128, eps=1e-05, momentum=0.1, affine=True, track_running_stats=True)
        (ff_dropout1): Dropout(p=0.0, inplace=False)
        (ff_dropout2): Dropout(p=0.0, inplace=False)
      )
      (gnn_q): GPSLayer(
        summary: dim_h=128, local_gnn_type=CustomGatedGCN, global_model_type=Transformer, heads=4
        (local_model): GatedGCNLayer()
        (self_attn): MultiheadAttention(
          (out_proj): NonDynamicallyQuantizableLinear(in_features=128, out_features=128, bias=True)
        )
        (norm1_local): BatchNorm1d(128, eps=1e-05, momentum=0.1, affine=True, track_running_stats=True)
        (norm1_attn): BatchNorm1d(128, eps=1e-05, momentum=0.1, affine=True, track_running_stats=True)
        (dropout_local): Dropout(p=0.0, inplace=False)
        (dropout_attn): Dropout(p=0.0, inplace=False)
        (ff_linear1): Linear(in_features=128, out_features=256, bias=True)
        (ff_linear2): Linear(in_features=256, out_features=128, bias=True)
        (act_fn_ff): ReLU()
        (norm2): BatchNorm1d(128, eps=1e-05, momentum=0.1, affine=True, track_running_stats=True)
        (ff_dropout1): Dropout(p=0.0, inplace=False)
        (ff_dropout2): Dropout(p=0.0, inplace=False)
      )
    )
  )
)

dvn.encoder.gnn_wrapper_li.1.gnnm
OurGMNCustomWrapper(
  (gmn_inter): OurGMNCustomInter(
    (mlp_att_cross_q): MLP(
      (activation): ELU(alpha=1.0)
      (layers): ModuleList(
        (0): Linear(in_features=128, out_features=128, bias=True)
      )
    )
    (mlp_att_cross_t): MLP(
      (activation): ELU(alpha=1.0)
      (layers): ModuleList(
        (0): Linear(in_features=128, out_features=128, bias=True)
      )
    )
    (mlp_val_cross_q): MLP(
      (activation): ELU(alpha=1.0)
      (layers): ModuleList(
        (0): Linear(in_features=128, out_features=128, bias=True)
      )
    )
    (mlp_val_cross_t): MLP(
      (activation): ELU(alpha=1.0)
      (layers): ModuleList(
        (0): Linear(in_features=128, out_features=128, bias=True)
      )
    )
    (mlp_merge_q): MLP(
      (activation): ELU(alpha=1.0)
      (layers): ModuleList(
        (0): Linear(in_features=256, out_features=128, bias=True)
      )
    )
    (mlp_merge_t): MLP(
      (activation): ELU(alpha=1.0)
      (layers): ModuleList(
        (0): Linear(in_features=384, out_features=128, bias=True)
      )
    )
  )
  (gmn_intra): OurGMNCustomIntra(
    (gnn_t): GPSLayer(
      summary: dim_h=128, local_gnn_type=CustomGatedGCN, global_model_type=Transformer, heads=4
      (local_model): GatedGCNLayer()
      (self_attn): MultiheadAttention(
        (out_proj): NonDynamicallyQuantizableLinear(in_features=128, out_features=128, bias=True)
      )
      (norm1_local): BatchNorm1d(128, eps=1e-05, momentum=0.1, affine=True, track_running_stats=True)
      (norm1_attn): BatchNorm1d(128, eps=1e-05, momentum=0.1, affine=True, track_running_stats=True)
      (dropout_local): Dropout(p=0.0, inplace=False)
      (dropout_attn): Dropout(p=0.0, inplace=False)
      (ff_linear1): Linear(in_features=128, out_features=256, bias=True)
      (ff_linear2): Linear(in_features=256, out_features=128, bias=True)
      (act_fn_ff): ReLU()
      (norm2): BatchNorm1d(128, eps=1e-05, momentum=0.1, affine=True, track_running_stats=True)
      (ff_dropout1): Dropout(p=0.0, inplace=False)
      (ff_dropout2): Dropout(p=0.0, inplace=False)
    )
    (gnn_q): GPSLayer(
      summary: dim_h=128, local_gnn_type=CustomGatedGCN, global_model_type=Transformer, heads=4
      (local_model): GatedGCNLayer()
      (self_attn): MultiheadAttention(
        (out_proj): NonDynamicallyQuantizableLinear(in_features=128, out_features=128, bias=True)
      )
      (norm1_local): BatchNorm1d(128, eps=1e-05, momentum=0.1, affine=True, track_running_stats=True)
      (norm1_attn): BatchNorm1d(128, eps=1e-05, momentum=0.1, affine=True, track_running_stats=True)
      (dropout_local): Dropout(p=0.0, inplace=False)
      (dropout_attn): Dropout(p=0.0, inplace=False)
      (ff_linear1): Linear(in_features=128, out_features=256, bias=True)
      (ff_linear2): Linear(in_features=256, out_features=128, bias=True)
      (act_fn_ff): ReLU()
      (norm2): BatchNorm1d(128, eps=1e-05, momentum=0.1, affine=True, track_running_stats=True)
      (ff_dropout1): Dropout(p=0.0, inplace=False)
      (ff_dropout2): Dropout(p=0.0, inplace=False)
    )
  )
)

dvn.encoder.gnn_wrapper_li.1.gnnm.gmn_inter
OurGMNCustomInter(
  (mlp_att_cross_q): MLP(
    (activation): ELU(alpha=1.0)
    (layers): ModuleList(
      (0): Linear(in_features=128, out_features=128, bias=True)
    )
  )
  (mlp_att_cross_t): MLP(
    (activation): ELU(alpha=1.0)
    (layers): ModuleList(
      (0): Linear(in_features=128, out_features=128, bias=True)
    )
  )
  (mlp_val_cross_q): MLP(
    (activation): ELU(alpha=1.0)
    (layers): ModuleList(
      (0): Linear(in_features=128, out_features=128, bias=True)
    )
  )
  (mlp_val_cross_t): MLP(
    (activation): ELU(alpha=1.0)
    (layers): ModuleList(
      (0): Linear(in_features=128, out_features=128, bias=True)
    )
  )
  (mlp_merge_q): MLP(
    (activation): ELU(alpha=1.0)
    (layers): ModuleList(
      (0): Linear(in_features=256, out_features=128, bias=True)
    )
  )
  (mlp_merge_t): MLP(
    (activation): ELU(alpha=1.0)
    (layers): ModuleList(
      (0): Linear(in_features=384, out_features=128, bias=True)
    )
  )
)

dvn.encoder.gnn_wrapper_li.1.gnnm.gmn_inter.mlp_att_cross_q
MLP(
  (activation): ELU(alpha=1.0)
  (layers): ModuleList(
    (0): Linear(in_features=128, out_features=128, bias=True)
  )
)

dvn.encoder.gnn_wrapper_li.1.gnnm.gmn_inter.mlp_att_cross_q.activation
ELU(alpha=1.0)

dvn.encoder.gnn_wrapper_li.1.gnnm.gmn_inter.mlp_att_cross_q.layers
ModuleList(
  (0): Linear(in_features=128, out_features=128, bias=True)
)

dvn.encoder.gnn_wrapper_li.1.gnnm.gmn_inter.mlp_att_cross_q.layers.0
Linear(in_features=128, out_features=128, bias=True)

dvn.encoder.gnn_wrapper_li.1.gnnm.gmn_inter.mlp_att_cross_t
MLP(
  (activation): ELU(alpha=1.0)
  (layers): ModuleList(
    (0): Linear(in_features=128, out_features=128, bias=True)
  )
)

dvn.encoder.gnn_wrapper_li.1.gnnm.gmn_inter.mlp_att_cross_t.activation
ELU(alpha=1.0)

dvn.encoder.gnn_wrapper_li.1.gnnm.gmn_inter.mlp_att_cross_t.layers
ModuleList(
  (0): Linear(in_features=128, out_features=128, bias=True)
)

dvn.encoder.gnn_wrapper_li.1.gnnm.gmn_inter.mlp_att_cross_t.layers.0
Linear(in_features=128, out_features=128, bias=True)

dvn.encoder.gnn_wrapper_li.1.gnnm.gmn_inter.mlp_val_cross_q
MLP(
  (activation): ELU(alpha=1.0)
  (layers): ModuleList(
    (0): Linear(in_features=128, out_features=128, bias=True)
  )
)

dvn.encoder.gnn_wrapper_li.1.gnnm.gmn_inter.mlp_val_cross_q.activation
ELU(alpha=1.0)

dvn.encoder.gnn_wrapper_li.1.gnnm.gmn_inter.mlp_val_cross_q.layers
ModuleList(
  (0): Linear(in_features=128, out_features=128, bias=True)
)

dvn.encoder.gnn_wrapper_li.1.gnnm.gmn_inter.mlp_val_cross_q.layers.0
Linear(in_features=128, out_features=128, bias=True)

dvn.encoder.gnn_wrapper_li.1.gnnm.gmn_inter.mlp_val_cross_t
MLP(
  (activation): ELU(alpha=1.0)
  (layers): ModuleList(
    (0): Linear(in_features=128, out_features=128, bias=True)
  )
)

dvn.encoder.gnn_wrapper_li.1.gnnm.gmn_inter.mlp_val_cross_t.activation
ELU(alpha=1.0)

dvn.encoder.gnn_wrapper_li.1.gnnm.gmn_inter.mlp_val_cross_t.layers
ModuleList(
  (0): Linear(in_features=128, out_features=128, bias=True)
)

dvn.encoder.gnn_wrapper_li.1.gnnm.gmn_inter.mlp_val_cross_t.layers.0
Linear(in_features=128, out_features=128, bias=True)

dvn.encoder.gnn_wrapper_li.1.gnnm.gmn_inter.mlp_merge_q
MLP(
  (activation): ELU(alpha=1.0)
  (layers): ModuleList(
    (0): Linear(in_features=256, out_features=128, bias=True)
  )
)

dvn.encoder.gnn_wrapper_li.1.gnnm.gmn_inter.mlp_merge_q.activation
ELU(alpha=1.0)

dvn.encoder.gnn_wrapper_li.1.gnnm.gmn_inter.mlp_merge_q.layers
ModuleList(
  (0): Linear(in_features=256, out_features=128, bias=True)
)

dvn.encoder.gnn_wrapper_li.1.gnnm.gmn_inter.mlp_merge_q.layers.0
Linear(in_features=256, out_features=128, bias=True)

dvn.encoder.gnn_wrapper_li.1.gnnm.gmn_inter.mlp_merge_t
MLP(
  (activation): ELU(alpha=1.0)
  (layers): ModuleList(
    (0): Linear(in_features=384, out_features=128, bias=True)
  )
)

dvn.encoder.gnn_wrapper_li.1.gnnm.gmn_inter.mlp_merge_t.activation
ELU(alpha=1.0)

dvn.encoder.gnn_wrapper_li.1.gnnm.gmn_inter.mlp_merge_t.layers
ModuleList(
  (0): Linear(in_features=384, out_features=128, bias=True)
)

dvn.encoder.gnn_wrapper_li.1.gnnm.gmn_inter.mlp_merge_t.layers.0
Linear(in_features=384, out_features=128, bias=True)

dvn.encoder.gnn_wrapper_li.1.gnnm.gmn_intra
OurGMNCustomIntra(
  (gnn_t): GPSLayer(
    summary: dim_h=128, local_gnn_type=CustomGatedGCN, global_model_type=Transformer, heads=4
    (local_model): GatedGCNLayer()
    (self_attn): MultiheadAttention(
      (out_proj): NonDynamicallyQuantizableLinear(in_features=128, out_features=128, bias=True)
    )
    (norm1_local): BatchNorm1d(128, eps=1e-05, momentum=0.1, affine=True, track_running_stats=True)
    (norm1_attn): BatchNorm1d(128, eps=1e-05, momentum=0.1, affine=True, track_running_stats=True)
    (dropout_local): Dropout(p=0.0, inplace=False)
    (dropout_attn): Dropout(p=0.0, inplace=False)
    (ff_linear1): Linear(in_features=128, out_features=256, bias=True)
    (ff_linear2): Linear(in_features=256, out_features=128, bias=True)
    (act_fn_ff): ReLU()
    (norm2): BatchNorm1d(128, eps=1e-05, momentum=0.1, affine=True, track_running_stats=True)
    (ff_dropout1): Dropout(p=0.0, inplace=False)
    (ff_dropout2): Dropout(p=0.0, inplace=False)
  )
  (gnn_q): GPSLayer(
    summary: dim_h=128, local_gnn_type=CustomGatedGCN, global_model_type=Transformer, heads=4
    (local_model): GatedGCNLayer()
    (self_attn): MultiheadAttention(
      (out_proj): NonDynamicallyQuantizableLinear(in_features=128, out_features=128, bias=True)
    )
    (norm1_local): BatchNorm1d(128, eps=1e-05, momentum=0.1, affine=True, track_running_stats=True)
    (norm1_attn): BatchNorm1d(128, eps=1e-05, momentum=0.1, affine=True, track_running_stats=True)
    (dropout_local): Dropout(p=0.0, inplace=False)
    (dropout_attn): Dropout(p=0.0, inplace=False)
    (ff_linear1): Linear(in_features=128, out_features=256, bias=True)
    (ff_linear2): Linear(in_features=256, out_features=128, bias=True)
    (act_fn_ff): ReLU()
    (norm2): BatchNorm1d(128, eps=1e-05, momentum=0.1, affine=True, track_running_stats=True)
    (ff_dropout1): Dropout(p=0.0, inplace=False)
    (ff_dropout2): Dropout(p=0.0, inplace=False)
  )
)

dvn.encoder.gnn_wrapper_li.1.gnnm.gmn_intra.gnn_t
GPSLayer(
  summary: dim_h=128, local_gnn_type=CustomGatedGCN, global_model_type=Transformer, heads=4
  (local_model): GatedGCNLayer()
  (self_attn): MultiheadAttention(
    (out_proj): NonDynamicallyQuantizableLinear(in_features=128, out_features=128, bias=True)
  )
  (norm1_local): BatchNorm1d(128, eps=1e-05, momentum=0.1, affine=True, track_running_stats=True)
  (norm1_attn): BatchNorm1d(128, eps=1e-05, momentum=0.1, affine=True, track_running_stats=True)
  (dropout_local): Dropout(p=0.0, inplace=False)
  (dropout_attn): Dropout(p=0.0, inplace=False)
  (ff_linear1): Linear(in_features=128, out_features=256, bias=True)
  (ff_linear2): Linear(in_features=256, out_features=128, bias=True)
  (act_fn_ff): ReLU()
  (norm2): BatchNorm1d(128, eps=1e-05, momentum=0.1, affine=True, track_running_stats=True)
  (ff_dropout1): Dropout(p=0.0, inplace=False)
  (ff_dropout2): Dropout(p=0.0, inplace=False)
)

dvn.encoder.gnn_wrapper_li.1.gnnm.gmn_intra.gnn_t.local_model
GatedGCNLayer()

dvn.encoder.gnn_wrapper_li.1.gnnm.gmn_intra.gnn_t.local_model.aggr_module
SumAggregation()

dvn.encoder.gnn_wrapper_li.1.gnnm.gmn_intra.gnn_t.local_model.A
…
