…
True  --scalable=True  --shuffle_input=False  --simplified_sg_emb=True  --smart_bin_sampling=True  --smarter_bin_sampling=False  --subtract_sg_size=False  --supervised_before=1250  --throw_away=0  --time_analysis=False  --total_runtime=-1  --train_test_ratio=0.8  --tvt_strategy=holdout  --use_cached_gnn=False  --use_mcsp_policy=False  --val_debug=False  --val_every_iter=100  --val_method_list=['dqn']  --validation=False  --with_bdgnn=False  --with_gnn_per_action=False

Model(
  (layers): ModuleList(
    (0): SMRLBacktrack(
      (dqn): Q_network_v1(
        (encode): EncoderMLP(
          (mlp): Linear(in_features=6, out_features=16, bias=True)
        )
        (dvn): DVN(
          (gnn_main): GNNPropagator(
            (GNNs): ModuleList(
              (0): GATConv(16, 16, heads=1)
              (1): GATConv(16, 16, heads=1)
              (2): GATConv(16, 16, heads=1)
            )
            (MLPs): ModuleList(
              (0): Linear(in_features=16, out_features=16, bias=True)
              (1): Linear(in_features=16, out_features=16, bias=True)
              (2): Linear(in_features=16, out_features=16, bias=True)
            )
            (act): ReLU()
          )
          (gnn_bd): GNNPropagator(
            (GNNs): ModuleList(
              (0): GATConvManual(16, 16, heads=1)
              (1): GATConvManual(16, 16, heads=1)
              (2): GATConvManual(16, 16, heads=1)
            )
            (MLPs): ModuleList(
              (0): Linear(in_features=16, out_features=16, bias=True)
              (1): Linear(in_features=16, out_features=16, bias=True)
              (2): Linear(in_features=16, out_features=16, bias=True)
            )
            (act): ReLU()
          )
          (interact_weights): ModuleDict(
            (gs_1dconv+max_1_3): Conv1d(1, 1, kernel_size=(3,), stride=(1,))
            (gs_1dconv+max_1_16): Conv1d(1, 1, kernel_size=(16,), stride=(1,))
            (gs_comb_MLP): MLP(
              (activation): ELU(alpha=1.0)
              (layers): ModuleList(
                (0): Linear(in_features=31, out_features=32, bias=True)
              )
            )
            (sgs_1dconv+max_1_3): Conv1d(1, 1, kernel_size=(3,), stride=(1,))
            (sgs_1dconv+max_1_16): Conv1d(1, 1, kernel_size=(16,), stride=(1,))
            (sgs_comb_MLP): MLP(
              (activation): ELU(alpha=1.0)
              (layers): ModuleList(
                (0): Linear(in_features=31, out_features=32, bias=True)
              )
            )
            (abds_1dconv+max_1_3): Conv1d(1, 1, kernel_size=(3,), stride=(1,))
            (abds_1dconv+max_1_16): Conv1d(1, 1, kernel_size=(16,), stride=(1,))
            (abds_comb_MLP): MLP(
              (activation): ELU(alpha=1.0)
              (layers): ModuleList(
                (0): Linear(in_features=31, out_features=32, bias=True)
              )
            )
            (ubds_1dconv+max_1_3): Conv1d(1, 1, kernel_size=(3,), stride=(1,))
            (ubds_1dconv+max_1_16): Conv1d(1, 1, kernel_size=(16,), stride=(1,))
            (ubds_comb_MLP): MLP(
              (activation): ELU(alpha=1.0)
              (layers): ModuleList(
                (0): Linear(in_features=31, out_features=32, bias=True)
              )
            )
          )
          (MLP_g_big): MLP(
            (activation): ELU(alpha=1.0)
            (layers): ModuleList(
              (0): Linear(in_features=16, out_features=16, bias=True)
              (1): Linear(in_features=16, out_features=16, bias=True)
              (2): Linear(in_features=16, out_features=16, bias=True)
            )
          )
          (MLP_sg): MLP(
            (activation): ELU(alpha=1.0)
            (layers): ModuleList(
              (0): Linear(in_features=16, out_features=16, bias=True)
              (1): Linear(in_features=16, out_features=16, bias=True)
              (2): Linear(in_features=16, out_features=16, bias=True)
            )
          )
          (MLP_abds_big): MLP(
            (activation): ELU(alpha=1.0)
            (layers): ModuleList(
              (0): Linear(in_features=32, out_features=32, bias=True)
              (1): Linear(in_features=32, out_features=32, bias=True)
              (2): Linear(in_features=32, out_features=32, bias=True)
            )
          )
          (MLP_abd_big): MLP(
            (activation): ELU(alpha=1.0)
            (layers): ModuleList(
              (0): Linear(in_features=16, out_features=16, bias=True)
              (1): Linear(in_features=16, out_features=16, bias=True)
              (2): Linear(in_features=16, out_features=16, bias=True)
            )
          )
          (MLP_ubds_big): MLP(
            (activation): ELU(alpha=1.0)
            (layers): ModuleList(
              (0): Linear(in_features=32, out_features=32, bias=True)
              (1): Linear(in_features=32, out_features=32, bias=True)
              (2): Linear(in_features=32, out_features=32, bias=True)
            )
          )
          (MLP_ubd_big): MLP(
            (activation): ELU(alpha=1.0)
            (layers): ModuleList(
              (0): Linear(in_features=16, out_features=16, bias=True)
              (1): Linear(in_features=16, out_features=16, bias=True)
              (2): Linear(in_features=16, out_features=16, bias=True)
            )
          )
          (MLP_final): MLP(
            (activation): ELU(alpha=1.0)
            (layers): ModuleList(
              (0): Linear(in_features=128, out_features=64, bias=True)
              (1): Linear(in_features=64, out_features=32, bias=True)
              (2): Linear(in_features=32, out_features=16, bias=True)
              (3): Linear(in_features=16, out_features=8, bias=True)
              (4): Linear(in_features=8, out_features=4, bias=True)
              (5): Linear(in_features=4, out_features=2, bias=True)
              (6): Linear(in_features=2, out_features=1, bias=True)
            )
          )
          (Q_act): ELU(alpha=1.0)
          (act): ELU(alpha=1.0)
        )
      )
      (dqn_tgt): Q_network_v1(
        (encode): EncoderMLP(
          (mlp): Linear(in_features=6, out_features=16, bias=True)
        )
        (dvn): DVN(
          (gnn_main): GNNPropagator(
            (GNNs): ModuleList(
              (0): GATConv(16, 16, heads=1)
              (1): GATConv(16, 16, heads=1)
              (2): GATConv(16, 16, heads=1)
            )
            (MLPs): ModuleList(
              (0): Linear(in_features=16, out_features=16, bias=True)
              (1): Linear(in_features=16, out_features=16, bias=True)
              (2): Linear(in_features=16, out_features=16, bias=True)
            )
            (act): ReLU()
          )
          (gnn_bd): GNNPropagator(
            (GNNs): ModuleList(
              (0): GATConvManual(16, 16, heads=1)
              (1): GATConvManual(16, 16, heads=1)
              (2): GATConvManual(16, 16, heads=1)
            )
            (MLPs): ModuleList(
              (0): Linear(in_features=16, out_features=16, bias=True)
              (1): Linear(in_features=16, out_features=16, bias=True)
              (2): Linear(in_features=16, out_features=16, bias=True)
            )
            (act): ReLU()
          )
          (interact_weights): ModuleDict(
            (gs_1dconv+max_1_3): Conv1d(1, 1, kernel_size=(3,), stride=(1,))
            (gs_1dconv+max_1_16): Conv1d(1, 1, kernel_size=(16,), stride=(1,))
            (gs_comb_MLP): MLP(
              (activation): ELU(alpha=1.0)
              (layers): ModuleList(
                (0): Linear(in_features=31, out_features=32, bias=True)
              )
            )
            (sgs_1dconv+max_1_3): Conv1d(1, 1, kernel_size=(3,), stride=(1,))
            (sgs_1dconv+max_1_16): Conv1d(1, 1, kernel_size=(16,), stride=(1,))
            (sgs_comb_MLP): MLP(
              (activation): ELU(alpha=1.0)
              (layers): ModuleList(
                (0): Linear(in_features=31, out_features=32, bias=True)
              )
            )
            (abds_1dconv+max_1_3): Conv1d(1, 1, kernel_size=(3,), stride=(1,))
            (abds_1dconv+max_1_16): Conv1d(1, 1, kernel_size=(16,), stride=(1,))
            (abds_comb_MLP): MLP(
              (activation): ELU(alpha=1.0)
              (layers): ModuleList(
                (0): Linear(in_features=31, out_features=32, bias=True)
              )
            )
            (ubds_1dconv+max_1_3): Conv1d(1, 1, kernel_size=(3,), stride=(1,))
            (ubds_1dconv+max_1_16): Conv1d(1, 1, kernel_size=(16,), stride=(1,))
            (ubds_comb_MLP): MLP(
              (activation): ELU(alpha=1.0)
              (layers): ModuleList(
                (0): Linear(in_features=31, out_features=32, bias=True)
              )
            )
          )
          (MLP_g_big): MLP(
            (activation): ELU(alpha=1.0)
            (layers): ModuleList(
              (0): Linear(in_features=16, out_features=16, bias=True)
              (1): Linear(in_features=16, out_features=16, bias=True)
              (2): Linear(in_features=16, out_features=16, bias=True)
            )
          )
          (MLP_sg): MLP(
            (activation): ELU(alpha=1.0)
            (layers): ModuleList(
              (0): Linear(in_features=16, out_features=16, bias=True)
              (1): Linear(in_features=16, out_features=16, bias=True)
              (2): Linear(in_features=16, out_features=16, bias=True)
            )
          )
          (MLP_abds_big): MLP(
            (activation): ELU(alpha=1.0)
            (layers): ModuleList(
              (0): Linear(in_features=32, out_features=32, bias=True)
              (1): Linear(in_features=32, out_features=32, bias=True)
              (2): Linear(in_features=32, out_features=32, bias=True)
            )
          )
          (MLP_abd_big): MLP(
            (activation): ELU(alpha=1.0)
            (layers): ModuleList(
              (0): Linear(in_features=16, out_features=16, bias=True)
              (1): Linear(in_features=16, out_features=16, bias=True)
              (2): Linear(in_features=16, out_features=16, bias=True)
            )
          )
          (MLP_ubds_big): MLP(
            (activation): ELU(alpha=1.0)
            (layers): ModuleList(
              (0): Linear(in_features=32, out_features=32, bias=True)
              (1): Linear(in_features=32, out_features=32, bias=True)
              (2): Linear(in_features=32, out_features=32, bias=True)
            )
          )
          (MLP_ubd_big): MLP(
            (activation): ELU(alpha=1.0)
            (layers): ModuleList(
              (0): Linear(in_features=16, out_features=16, bias=True)
              (1): Linear(in_features=16, out_features=16, bias=True)
              (2): Linear(in_features=16, out_features=16, bias=True)
            )
          )
          (MLP_final): MLP(
            (activation): ELU(alpha=1.0)
            (layers): ModuleList(
              (0): Linear(in_features=128, out_features=64, bias=True)
              (1): Linear(in_features=64, out_features=32, bias=True)
              (2): Linear(in_features=32, out_features=16, bias=True)
              (3): Linear(in_features=16, out_features=8, bias=True)
              (4): Linear(in_features=8, out_features=4, bias=True)
              (5): Linear(in_features=4, out_features=2, bias=True)
              (6): Linear(in_features=2, out_features=1, bias=True)
            )
          )
          (Q_act): ELU(alpha=1.0)
          (act): ELU(alpha=1.0)
        )
      )
      (loss): MSELoss()
    )
  )
)
